logs/rsl_rl/needle_lift/2025-01-31_01-49-48/exported/policy.onnx (onnx, 202494 bytes, 8 tensors)

actor.0.weight f4 [256, 33]
0	0xbf2fab23	-0.6862051
1	0x3f2a30a0	0.66480446
2	0x3d58f8cc	0.052971646
3	0xbe282c08	-0.16423047
4	0xbd35b7d6	-0.044364773
5	0x3e39815d	0.18115754
6	0xbebb1c00	-0.365448
7	0x3e73526b	0.23761909
8	0x3c6d90bc	0.014499839
9	0x3e0d27b6	0.1378468
10	0x3d1df2f5	0.03856178
11	0xbce51752	-0.027965222
12	0xbd7023f9	-0.058628056
13	0xbbbfcea7	-0.0058534923
14	0x3da36512	0.07978262
15	0x3d728d7f	0.059216972
16	0x3f5ace6f	0.8547124
17	0x3f93f2a1	1.155842
18	0xbf114d4f	-0.5675859
19	0x3db2a8fe	0.08723639
20	0x3dad1282	0.08450796
21	0x3de6f390	0.112769246
22	0x3cdf8a85	0.027287731
23	0x3d44a60a	0.04800991
24	0xbceded78	-0.029043898
25	0x3dd707ed	0.104995586
26	0x3d23f369	0.040027056
27	0x3e3ef877	0.1864947
28	0x3c8e3869	0.017360883
29	0xbdc93215	-0.098240055
30	0xbd094212	-0.033510275
31	0x39a4a9db	0.0003140707
32	0x3d2923a9	0.041293774
33	0x3e91889d	0.2842454
34	0x3e80663f	0.25078008
35	0x3f2beb44	0.6715586
36	0xbd474472	-0.04864926
37	0xbdd6e44b	-0.10492762
38	0xbe8ebb9b	-0.27877507
39	0x3f8262dd	1.0186421
40	0xbf6b0328	-0.9180169
41	0x3e3600e7	0.17773782
42	0xbcffd410	-0.031229049
43	0x3d4ff8ea	0.050774492
44	0xbd1efd74	-0.03881593
45	0x3d97dd45	0.07415251
46	0xbc5a2675	-0.013314833
47	0xbdb04610	-0.08607113
48	0xbe8569f4	-0.26057398
49	0xbe02d426	-0.1277624
50	0xbc8ca9b7	-0.01717077
51	0x3e958456	0.29202527
52	0xbc6c60ca	-0.014427373
53	0xbc9f988d	-0.019481922
54	0x3d3e5607	0.04646876
55	0xbe7a481e	-0.24441573
56	0x3d5793cc	0.052631184
57	0xbbde4e2a	-0.00678422
58	0xbdf7a151	-0.120913155
59	0x3e28ad47	0.1647235
60	0x3c585668	0.013204195
61	0xbda157ff	-0.07878112
62	0xbd7949f8	-0.060861558
63	0x3b7bc02e	0.0038414109
64	0x3d9dfec5	0.07714609
65	0x3d21a317	0.039462175
66	0xbeea5f14	-0.45775664
67	0x3e548eb7	0.20757566
68	0x3f023d54	0.5087483
69	0xbe9601ec	-0.2929834
70	0x3e2edb9f	0.17075966
71	0xbe0867a6	-0.13320789
72	0xbbd36ebd	-0.00645241
73	0x3dc09d3a	0.094049886
74	0xbc8cb5e5	-0.017176578
75	0x3de7adf7	0.11312478
76	0xbe30fd85	-0.1728421
77	0xbcc05f49	-0.023482936
78	0x3d6e4c3b	0.058178168
79	0xbd608d05	-0.054821987
80	0xbdafa41c	-0.08576223
81	0xbda9f282	-0.08298208
82	0x3ebc9cc0	0.3683834
83	0x3ffa4320	1.9551735
84	0x3e439708	0.19100583
85	0x3e295f03	0.1654015
86	0x3d76fb13	0.060298037
87	0x3b000614	0.0019534873
88	0xbe211b35	-0.15733035
89	0x3e113c73	0.14183216
90	0xbd3f8d43	-0.046765577
91	0xbd0e9089	-0.03480581
92	0xbd8393ac	-0.064246505
93	0x3d43501f	0.04768383
94	0xbe0d7801	-0.13815309
95	0x3cb88e4b	0.022528788
96	0xbbd608d6	-0.006531815
97	0xbd3ed337	-0.04658815
98	0x3a99c0fc	0.0011730487
99	0xbdbba92d	-0.09163127
100	0xbe0fb1c8	-0.14032662
101	0xbe276237	-0.1634606
102	0xbe626497	-0.22108684
103	0xbd40f954	-0.047112778
104	0xbe00662e	-0.12538978
105	0xbd4c3445	-0.049854536
106	0xbd909464	-0.07059553
107	0x3c07acdd	0.00828096
108	0xbdf8fd06	-0.121576354
109	0x3da73a1f	0.081653826
110	0xbb862b6f	-0.004094533
111	0xbc88b824	-0.016689368
112	0x3d6b8022	0.057495244
113	0xbdad847c	-0.08472535
114	0x3d7f8ff5	0.062393147
115	0xbf04af7f	-0.51830286
116	0xbfdb44c5	-1.7130362
117	0xbdc3b7e9	-0.095565625
118	0xbdad9393	-0.08475413
119	0x3d05e0c8	0.03268507
120	0xbe1552ca	-0.14582363
121	0xbd554a60	-0.052072883
122	0x3cbc1825	0.022960732
123	0xbd88c19e	-0.066775545
124	0xbcce8b70	-0.025212973
125	0xbb2e10c7	-0.0026560293
126	0xbd34cee0	-0.044142604
127	0xbda8a3cd	-0.082343675
128	0xbd6034f0	-0.054737985
129	0xbdb0601c	-0.086120814
130	0x3d3fab1d	0.046794046
131	0x3dd3da3e	0.10344361
132	0x3e248416	0.16066012
133	0x3f0f399c	0.5594728
134	0xbf7c6ea0	-0.986063
135	0x3e42face	0.19040987
136	0xbe3864ab	-0.18007152
137	0x3ead8f81	0.33898547
138	0xbe7fcbf0	-0.2498014
139	0x3ebb8d20	0.36631107
140	0x3c53def3	0.012931573
141	0xbd025770	-0.03182167
142	0x3e095ca6	0.13414249
143	0x3d1bb253	0.03801186
144	0xbdadbb35	-0.084829725
145	0xbdc022e2	-0.09381653
146	0xbcbb062d	-0.022830093
147	0xbcc6b97c	-0.024258368
148	0x3e9005ea	0.28129512
149	0xbdd15643	-0.10221531
150	0xbeef64b1	-0.4675651
151	0xbd80ca6e	-0.062886104
152	0x3cab8691	0.02093819
153	0xbb35da8e	-0.0027748677
154	0x3d8bb181	0.068209656
155	0xbd3133db	-0.043262344
156	0x3e136fe2	0.14398149
157	0x3caf7284	0.02141691
158	0x3c746330	0.014916226
159	0x3d99868a	0.074963644
160	0x3d94bc5a	0.07262488
161	0xbd17cb1d	-0.03705894
162	0xbc11385c	-0.008863535
163	0xbca36b76	-0.019948702
164	0xbc65236d	-0.013985497
165	0xbf179223	-0.5920736
166	0x3ecd0fec	0.4005121
167	0x3f3ebe60	0.7450924
168	0xbe3e6ce6	-0.18596229
169	0xbeb9d3c0	-0.36294365
170	0xbe7ee5ac	-0.248923
171	0x3f08440e	0.53228843
172	0xbeb43d03	-0.35202798
173	0xbd06af51	-0.03288204
174	0x3e17858d	0.1479704
175	0x3d9eee4e	0.07760297
176	0xbdf9d4ca	-0.121987894
177	0x3daf8119	0.08569545
178	0x3ccce509	0.025011556
179	0x3e97a1f9	0.29615763
180	0xbd883d84	-0.06652358
181	0x3e968213	0.29396114
182	0x3ea73d8d	0.32664147
183	0x3e63cee0	0.22246885
184	0xbd169a11	-0.036768023
185	0x3d54d364	0.05195941
186	0xbdee607e	-0.11639498
187	0x3a674cbf	0.0008823387
188	0xbda50625	-0.080578126
189	0x3e041a78	0.12900722
190	0x3da6f37e	0.08151911
191	0xbd3c7c93	-0.04601724
192	0xbe18d5a5	-0.14925249
193	0x3c9bcce4	0.019018598
194	0xbd66ce57	-0.056349125
195	0xbdfe96a4	-0.12431076
196	0xbdb181ef	-0.08667361
197	0x3d0bdf0f	0.034148272
198	0xbf7e1d6b	-0.9926364
199	0x3ec36a89	0.38167217
200	0x3d78aabb	0.060709696
201	0x3ccfa254	0.025345959
202	0xbe43f348	-0.19135773
203	0x3e0736e9	0.1320454
204	0xbdf9f578	-0.122050226
205	0x3d6e2fdf	0.058151122
206	0x3d08b255	0.033373196
207	0x3dea518d	0.11441336
208	0x3eb06e2a	0.34459049
209	0xbdcf956d	-0.101359226
210	0xbe057578	-0.13033092
211	0xbd30fd1f	-0.043210145
212	0x3ddc0e5b	0.107449256
213	0x3dc50e0d	0.096218206
214	0x3f60270e	0.8755959
215	0x3f8b1ab7	1.0867528
216	0xbe7c5113	-0.24640302
217	0x3dce1012	0.10061659
218	0xbe14b0ae	-0.14520523
219	0xbd13f214	-0.036119536
220	0xbd62d4ba	-0.055378653
221	0x3dd86710	0.105665326
222	0x3dc1b942	0.09459163
223	0xbe10c45c	-0.14137405
224	0x3e02ad3b	0.12761395
225	0x3e0ae6b8	0.13564575
226	0xbd9ef8b6	-0.077622816
227	0xbdd6cc47	-0.104881816
228	0x3e0cea88	0.13761342
229	0x3cd0f7e9	0.025508838
230	0xbe022ec8	-0.12713158
231	0xbd9a5bd4	-0.07537046
232	0xbf471b25	-0.77775794
233	0x3e6bc771	0.230253
234	0xbf1d6201	-0.6147767
235	0xbe921d52	-0.28537995
236	0x3e8205a8	0.2539494
237	0x3e8a9a57	0.27070877
238	0xbea01141	-0.31263164
239	0x3c936740	0.01799357
240	0xbddc2450	-0.107491136
241	0x3d8d4eae	0.068997726
242	0xbc383386	-0.011242753
243	0x3deea18c	0.11651906
244	0x3e05c273	0.13062458
245	0x3d5fdded	0.054655004
246	0x3e321860	0.17392111
247	0x3e663c40	0.22483921
248	0xbf415210	-0.7551584
249	0x3ee4b304	0.44667828
250	0x3dd95051	0.10611022
251	0x3e0d2038	0.13781822
252	0x3e2bb024	0.16766411
253	0x3df383ac	0.11890349
254	0xbe011576	-0.12605843
255	0x3e199678	0.14998806

actor.0.bias f4 [256]
0	0xbd0e4cf3	-0.034741353
1	0xbe82e5ad	-0.25565854
2	0xbde8b567	-0.11362725
3	0x3e042047	0.12902938
4	0xbd7ab6eb	-0.0612096
5	0xbcd0e998	-0.025502011
6	0xbe37184f	-0.17880367
7	0xbe32b811	-0.17453028
8	0x3e03d709	0.12874998
9	0x3c72ff81	0.014831425
10	0x3dfa50ed	0.122224666
11	0x3e0a6d0b	0.13518159
12	0x3dec2903	0.1153126
13	0xbc9b3ff2	-0.01895139
14	0xbd41c78c	-0.047309443
15	0xbd436ef7	-0.047713246
16	0xbe49751d	-0.19673581
17	0xbc4d7503	-0.012540105
18	0x3c7cf9aa	0.015440384
19	0xbcaf3c8d	-0.021391178
20	0xbe33c4cc	-0.17555541
21	0xbe68794e	-0.22702524
22	0xbdbbb27e	-0.09164904
23	0xbdfdbfb0	-0.12390077
24	0xbe7d27f2	-0.24722269
25	0x3dafacd8	0.08577889
26	0x3dbceb41	0.092245586
27	0xbea66631	-0.3249984
28	0x3dc38e34	0.095486075
29	0xbbce84f7	-0.0063024717
30	0xbc73ff8f	-0.014892473
31	0x3dd8417e	0.10559367
32	0x3dd7ad22	0.10531069
33	0xbceb1d23	-0.028700417
34	0x3dafb23c	0.085789174
35	0xbe0d8a8b	-0.13822381
36	0x3e3840ae	0.17993423
37	0x3bb076dc	0.005385263
38	0x3daefc9e	0.08544277
39	0xbe1d9aaa	-0.15391031
40	0x3ae3f7da	0.0017392591
41	0xbe209b4f	-0.15684246
42	0xbd1639bf	-0.036676165
43	0x3d888a56	0.066670105
44	0x3d890450	0.06690276
45	0xbe2b0da4	-0.16704422
46	0xbcfda638	-0.030963048
47	0x3d21d668	0.039511114
48	0xbdae2a82	-0.085042015
49	0x3dac1e0e	0.0840417
50	0x3e0152c4	0.12629229
51	0x3e0ad5ec	0.13558167
52	0xbe186d0e	-0.14885351
53	0xbb943bcd	-0.0045237304
54	0xbe24cc06	-0.16093454
55	0xbd1ffd6b	-0.039060038
56	0xbe0a64f9	-0.1351508
57	0xbde9a96a	-0.11409266
58	0x3d2dcce3	0.042431723
59	0xbda41e1a	-0.08013554
60	0x3e04e3b2	0.12977484
61	0xbd8cbb06	-0.068716094
62	0x3c5fda46	0.01366288
63	0xbd7c4aab	-0.061594646
64	0xbd25d834	-0.04048939
65	0xbe1198c2	-0.14218429
66	0xbe673e8c	-0.22582453
67	0xbcaada27	-0.020855976
68	0xbe825561	-0.25455764
69	0xbc2bf222	-0.010494741
70	0xbe324748	-0.17410004
71	0x3d9d0c86	0.07668404
72	0x3ce4032b	0.027833542
73	0x3d926365	0.07147864
74	0x371669fa	8.965371e-06
75	0xbde10c9a	-0.10988732
76	0xbe0632e0	-0.13105345
77	0xbe110639	-0.1416253
78	0xbdc06a37	-0.09395259
79	0xbe49f667	-0.19722901
80	0xbdd7ef28	-0.10543662
81	0xbda08f0c	-0.07839784
82	0xbda94732	-0.082655326
83	0xbd9497a6	-0.07255487
84	0x3d1bce84	0.038038746
85	0x3df6d0dd	0.12051556
86	0xbe5e611c	-0.21716732
87	0x3e11fe99	0.14257278
88	0xbe1f9512	-0.1558421
89	0xbccef013	-0.02526096
90	0x3e2bde54	0.1678403
91	0xbcc6a339	-0.024247753
92	0xbd6498f3	-0.055809926
93	0xbe1d612c	-0.153691
94	0xbe3cb2c0	-0.18427563
95	0xbe354d25	-0.1770521
96	0xbdaf877d	-0.08570764
97	0x3de23c52	0.110466614
98	0xbdecd439	-0.11563916
99	0xbb989eb0	-0.004657589
100	0xbe0b01cb	-0.13574903
101	0x3dcc720a	0.09982689
102	0xbe2b5567	-0.16731797
103	0x3da4465e	0.08021234
104	0xbce99c0b	-0.02851679
105	0x3e86158a	0.26188308
106	0xbdc5cb27	-0.09657889
107	0xbc49d5dc	-0.012319054
108	0xbdc4b178	-0.09604162
109	0x3dba863f	0.09107637
110	0x3cc8f305	0.024529943
111	0x3e19e970	0.15030456
112	0xbd5b999f	-0.0536133
113	0xbd84a82c	-0.06477389
114	0x3d96a834	0.07356301
115	0x3bf64dc9	0.007516597
116	0xbd363b77	-0.044490304
117	0xbd98d596	-0.07462613
118	0x3d320ac4	0.0434673
119	0x3d3735c4	0.04472901
120	0xbc369a26	-0.01114515
121	0xbe4d6652	-0.20058563
122	0xbd1ced15	-0.038312037
123	0xbd054657	-0.032537784
124	0xbda71771	-0.08158768
125	0xbe693647	-0.22774611
126	0x3d297ea4	0.04138054
127	0x3d9665c8	0.07343632
128	0xbcacde71	-0.021102162
129	0xbd7d9d52	-0.06191761
130	0x3bd2657f	0.0064207907
131	0xbe47106e	-0.19439861
132	0xbdb20ec9	-0.08694226
133	0xbdd342a0	-0.10315442
134	0x3d7cdfc4	0.061736837
135	0xbe5bc8cd	-0.21463318
136	0xbe384a07	-0.17996989
137	0xbc1075ab	-0.008817117
138	0xbe61a5ac	-0.22035855
139	0x3dbbbcec	0.09166893
140	0xbe28dde9	-0.16490902
141	0xbd25ce1b	-0.04047976
142	0xbe29d24f	-0.16584133
143	0x3dd93cfa	0.106073335
144	0x3e194acf	0.14969943
145	0x3d8315b1	0.06400622
146	0xbe361ab9	-0.17783631
147	0xbc9a07fd	-0.018802637
148	0x3d94fdaf	0.07274949
149	0xbc81a9d3	-0.015828049
150	0x3d6086cf	0.054816063
151	0x3c8cf4a3	0.017206496
152	0x3d84636c	0.06464276
153	0x3d97e602	0.074169174
154	0xbe5af27e	-0.21381566
155	0x3e373c13	0.1789401
156	0xbe0f47e5	-0.1399227
157	0xbe23ca2c	-0.15995091
158	0xbd5b00a3	-0.053467404
159	0xbd830ac5	-0.063985385
160	0xbe299d6c	-0.16563958
161	0xbd0d2e99	-0.034468267
162	0xbe6879b1	-0.22702672
163	0xbdc6c0b5	-0.09704725
164	0x3d436643	0.047704946
165	0x3e09cede	0.1345782
166	0x3e3ff77d	0.18746753
167	0x3d140052	0.036133118
168	0xbe1ac36d	-0.15113612
169	0x3e2997f4	0.16561872
170	0x3d8c14f4	0.06839934
171	0x3c8f0837	0.017459972
172	0xbd9209a7	-0.07130747
173	0xbdf78c03	-0.12087252
174	0xbb8faa55	-0.004384319
175	0x3b911aa9	0.004428227
176	0xbdc1f68d	-0.09470854
177	0x3cbb9712	0.022899184
178	0xbe339a89	-0.17539419
179	0xbe0a1799	-0.13485564
180	0x3e137a49	0.14402117
181	0x3da49364	0.08035925
182	0xbdeb2c62	-0.11483075
183	0x3e0aac6d	0.13542338
184	0x3de88e75	0.113552965
185	0xbd9b22e2	-0.07575013
186	0x3cf52b73	0.029927945
187	0xbc67aec6	-0.01414079
188	0x3e066004	0.13122565
189	0x3e13e2e4	0.1444202
190	0x3e0315a7	0.12801228
191	0x3dbfd7b1	0.09367312
192	0xbdc1ea83	-0.09468558
193	0x3da9f070	0.08297813
194	0xbd1d77e3	-0.03844441
195	0xbe37e891	-0.17959811
196	0x3d1e7fa7	0.038695958
197	0x3c9dc66e	0.019259658
198	0xbbea954e	-0.007158912
199	0xbbcbab1e	-0.006215467
200	0x3e24d548	0.16096985
201	0x3deea92a	0.11653359
202	0xbd54b0f4	-0.05192657
203	0x3dcbbb9b	0.09947892
204	0xbe33b526	-0.17549571
205	0x3c33b371	0.010968075
206	0xbe375190	-0.17902207
207	0x3db409b3	0.087909125
208	0xbdf3f0d8	-0.11911172
209	0xbdfef5a0	-0.12449193
210	0xbe2919cd	-0.16513748
211	0x3dc77c14	0.09740463
212	0xba568b2f	-0.0008184192
213	0x3e2b794b	0.16745488
214	0x3ce9af37	0.028525932
215	0xbc115253	-0.008869725
216	0xbe53d0cc	-0.20685118
217	0xbcba260a	-0.022723217
218	0xbe18cd09	-0.14921965
219	0xbd919d1f	-0.071100466
220	0xbe032b4c	-0.12809485
221	0xbcaf7975	-0.02142022
222	0xbd83d2bf	-0.06436681
223	0xbd505ab2	-0.050867744
224	0x3d0c7cd5	0.034298737
225	0xbe2a158f	-0.16609786
226	0x3c90c3da	0.017671514
227	0x3c85c889	0.016330974
228	0x3c4d417e	0.012527822
229	0x3d882344	0.066473514
230	0x3cc15a8f	0.023602752
231	0x3e0afc10	0.13572717
232	0xbe0ebaca	-0.13938442
233	0xbe51f028	-0.20501769
234	0xbe114699	-0.14187087
235	0x3c86ae10	0.016440421
236	0xbde027fd	-0.10945127
237	0xbcec089a	-0.028812695
238	0xbdf4cb44	-0.11952832
239	0xbd0da545	-0.03458144
240	0x3e004ca9	0.12529244
241	0xbe44b99b	-0.19211428
242	0xbd97aa7c	-0.07405564
243	0x3d950988	0.072772086
244	0xbe2d0d89	-0.16899695
245	0xbda55d53	-0.08074441
246	0x3c4d729e	0.012539534
247	0x3d9634eb	0.07334312
248	0xbe23be57	-0.15990578
249	0x3d627840	0.05529046
250	0x3e2a6102	0.16638568
251	0xbd018187	-0.031617668
252	0x3dc7257b	0.09723946
253	0xbd9d06f4	-0.07667342
254	0x3e75692f	0.23965906
255	0xbe10f7ea	-0.14157072

actor.2.weight f4 [128, 256]
0	0xbe256d12	-0.16154888
1	0xbc4c1f03	-0.012458566
2	0x3b505132	0.0031786677
3	0x3cd5eec0	0.026114821
4	0xbc90c130	-0.017670244
5	0xbd156bf2	-0.036479898
6	0xbd9af9f4	-0.07567206
7	0x3d7efd2a	0.062253155
8	0x3d168556	0.036748253
9	0xbe7564b3	-0.23964195
10	0xbe76049b	-0.24025194
11	0x3c8fff28	0.017577723
12	0xbda70bbf	-0.08156537
13	0xbd1aec89	-0.037823234
14	0xbd9f8dba	-0.07790704
15	0x3d875e14	0.06609741
16	0xbbcb3295	-0.006201098
17	0x3c9c8e92	0.019110952
18	0xbc8b25a1	-0.016985716
19	0x3e31cfeb	0.1736447
20	0x3d8dc21e	0.069217905
21	0xbd474948	-0.04865387
22	0xbc2f7ec4	-0.010711376
23	0xbd92bae8	-0.07164556
24	0x3d0ec00f	0.03485113
25	0x3e1da420	0.1539464
26	0x3d4f33e7	0.050586607
27	0xbc930648	-0.017947331
28	0x3e15fa0e	0.1464617
29	0xbc9365dc	-0.017992906
30	0xbe9223be	-0.28542894
31	0xbe5261d1	-0.20545126
32	0xbda14f9d	-0.07876513
33	0xbe511d72	-0.20421389
34	0x3d347aaa	0.044062294
35	0xbcf77e34	-0.030211546
36	0x3d581bb2	0.052760787
37	0xbd78a986	-0.060708545
38	0xbdac12b3	-0.08402004
39	0xbd3bc6ef	-0.045844015
40	0x3e874ecc	0.26427305
41	0xbd7e633a	-0.06210635
42	0xbd35f742	-0.044425257
43	0xbe6c56b4	-0.2307995
44	0xbc989b53	-0.018628752
45	0x3df4df01	0.11956597
46	0xbd184b5b	-0.03718124
47	0x3d330585	0.043706436
48	0x3d0ea726	0.034827374
49	0xbe345ac0	-0.17612743
50	0x3cdf4ea1	0.027259173
51	0xbdb45230	-0.088047385
52	0xbcb007a9	-0.021488028
53	0xbd176224	-0.03695883
54	0x3ccc24f0	0.024919957
55	0x3d6b16c8	0.057394773
56	0xbcba1ce1	-0.022718849
57	0x3dc05869	0.09391863
58	0xbdb7957c	-0.08964059
59	0x3e164832	0.14675978
60	0x3dc87c64	0.09789351
61	0xbc0fe868	-0.008783437
62	0xbdaccc58	-0.08437413
63	0x3c847804	0.01617051
64	0xbcbb3629	-0.022852974
65	0xbc0e244a	-0.008675644
66	0xbdee59af	-0.116381995
67	0xbcaf3606	-0.021388065
68	0xbd8021a1	-0.06256414
69	0xbe036250	-0.12830472
70	0xbd10ed0e	-0.035382323
71	0xbc7a7cda	-0.015288556
72	0xbe290b25	-0.16508158
73	0xbe351f59	-0.1768774
74	0x3cca02d5	0.024659554
75	0xbe68d345	-0.22736843
76	0x3d37a6c0	0.04483676
77	0xbdc06158	-0.09393567
78	0x3ca11673	0.019664025
79	0xbe156364	-0.14588696
80	0x3d49ae07	0.04923823
81	0x3d94eaf6	0.07271378
82	0xbde1c281	-0.11023427
83	0x3d555942	0.052087076
84	0x3c677144	0.014126126
85	0xbe9c1da8	-0.30491376
86	0xbd128a59	-0.03577647
87	0xbe8f834c	-0.2802986
88	0x3e1a591b	0.15073054
89	0xbba6fdd3	-0.005096176
90	0x3d10969b	0.03529988
91	0x3c105de8	0.0088114515
92	0xbd22c056	-0.039734207
93	0x3d524dcb	0.05134372
94	0xbdd2f825	-0.10301236
95	0xbc6ed6ac	-0.014577549
96	0xbd2854dd	-0.041096557
97	0xbc95283b	-0.01820766
98	0xbcc93b24	-0.024564333
99	0x3e4402a5	0.19141634
100	0xbe9fdca6	-0.3122303
101	0x3bfeffee	0.007781974
102	0xbda2fda2	-0.07958533
103	0xbd7e8f5f	-0.062148448
104	0x3e231c95	0.15928872
105	0x3eab3e07	0.3344576
106	0x3df33d0f	0.118768804
107	0xbc005317	-0.00783231
108	0x3d1c838d	0.038211394
109	0xbb65501f	-0.0034990383
110	0x3e644801	0.22293092
111	0xbde0d284	-0.10977653
112	0x3e08c646	0.13356885
113	0x3e30c00a	0.17260757
114	0xbe3bc03f	-0.18335055
115	0xbde566f4	-0.112012774
116	0x3d69b2cf	0.05705529
117	0xbd51a165	-0.05117931
118	0xbe6940ec	-0.22778672
119	0x3e83df62	0.25756365
120	0x3cdd9bfb	0.027051916
121	0xbdbb92ed	-0.09158883
122	0x3e6233d1	0.22090079
123	0x3c28cf28	0.010303296
124	0x3de335f7	0.11094277
125	0x3c4e2d89	0.012584099
126	0xbb9213f7	-0.0044579464
127	0x3d256b33	0.040385436
128	0x3e8866d8	0.26640964
129	0xbe2d01e1	-0.16895248
130	0xbb40b648	-0.0029405523
131	0x3dc7022d	0.09717212
132	0x3cf48986	0.029850733
133	0xbe17c939	-0.14822854
134	0xbcb52b5a	-0.022115398
135	0x3dbee047	0.09320121
136	0xbdb0f392	-0.08640207
137	0x3e0dddcc	0.1385414
138	0xbe3a7ca9	-0.18211617
139	0x3e119af1	0.14219262
140	0x3ce1b4d9	0.027552055
141	0x3c8a86ab	0.016909918
142	0xbe314aac	-0.17313641
143	0xbd908421	-0.070564516
144	0x3ee241e7	0.44190904
145	0xbca64f6e	-0.020301547
146	0xbdeab87f	-0.11460971
147	0x3e5ab12d	0.2135665
148	0x3ca4836f	0.020082204
149	0x3dd612b5	0.10452787
150	0x3d4df043	0.05027796
151	0x3de9bb12	0.11412634
152	0xbe582ef6	-0.21111664
153	0x3ccd772c	0.02508124
154	0xbd163485	-0.03667118
155	0x3e1d7806	0.15377817
156	0xbd39b90e	-0.045342498
157	0xbddd9065	-0.10818557
158	0x3ce5fd57	0.028074903
159	0x3e33fea3	0.17577605
160	0x3d8c3d36	0.068476126
161	0x3da940f9	0.08264346
162	0x3d90bbab	0.07067045
163	0xbd3b9c65	-0.045803446
164	0x3d46a3d7	0.048496094
165	0xbdca0f72	-0.09866227
166	0xbd058d5e	-0.03260552
167	0xbdbc0f04	-0.091825515
168	0x3d72aa7c	0.059244618
169	0x3cef73b6	0.02922998
170	0xbdd5c9e6	-0.104389
171	0x3b4bb796	0.0031084768
172	0xbde0da6b	-0.1097916
173	0xbe10e688	-0.1415044
174	0xbe5f6d66	-0.21819076
175	0xbdb96934	-0.09053269
176	0x3dfad5c5	0.122478046
177	0xbcb1fbea	-0.021726567
178	0x3c814ee5	0.01578469
179	0xbcea0970	-0.028568953
180	0x3ea7cc1f	0.3277292
181	0xbdba97be	-0.09110974
182	0xbe0adc86	-0.13560686
183	0x3dd3896a	0.10328944
184	0x3e00950e	0.1255686
185	0xbe02804b	-0.12744252
186	0x3e44ea93	0.19230108
187	0x3dd903e6	0.10596447
188	0xbd31b0fa	-0.04338167
189	0x3e13a558	0.14418542
190	0xbcca7e4f	-0.024718432
191	0xbd5942b3	-0.053042125
192	0x3aba0566	0.0014192283
193	0x3e155064	0.14581448
194	0xbcaa5417	-0.02079205
195	0x3e45462d	0.19265051
196	0xbdbe85cc	-0.093028635
197	0xbe24c82c	-0.16091985
198	0xbddc1923	-0.10746982
199	0x3d7d54f4	0.061848596
200	0x3cce46e9	0.025180297
201	0xbe1df1ea	-0.15424314
202	0xbe5ea65c	-0.21743149
203	0x3e0ab37a	0.13545027
204	0x3db13213	0.08652129
205	0xbdf5567a	-0.11979385
206	0x3dec2226	0.11529951
207	0x3dc8e82e	0.0980991
208	0xbe0e349f	-0.13887261
209	0xbcd2811f	-0.025696335
210	0x3c932a39	0.01796447
211	0xbe48c2eb	-0.19605605
212	0xbeb8b95f	-0.36078927
213	0xbc71bf37	-0.014755062
214	0xbbf9226d	-0.007602981
215	0x3e3fbe5a	0.18724957
216	0xbd3dcdb3	-0.04633875
217	0xbcd2e486	-0.025743734
218	0x3d937e96	0.07201879
219	0x3d7c9b41	0.0616715
220	0x3e42c55a	0.19020596
221	0x3e5710a7	0.21002446
222	0x3d606596	0.05478438
223	0xbdbd4594	-0.092417866
224	0xbe1219c7	-0.14267646
225	0xbe6f850f	-0.23390602
226	0xbc1bb517	-0.009503624
227	0xbe0b6944	-0.13614374
228	0x3d097dd7	0.033567276
229	0xbd931ae6	-0.07182865
230	0xbe8ec353	-0.27883396
231	0xbcb221fb	-0.021744719
232	0xbb45e958	-0.0030198898
233	0xbcea5534	-0.028605081
234	0xbe9a088f	-0.30084655
235	0x3dbba86f	0.091629855
236	0x3dcffff4	0.10156241
237	0xbe0b88de	-0.1362643
238	0xbde2f637	-0.11082118
239	0xbd467c90	-0.048458636
240	0xbda6a031	-0.08136023
241	0xbdf14e89	-0.117825575
242	0x3e2f3179	0.17108716
243	0xbe053760	-0.13009405
244	0xbe113541	-0.14180471
245	0xbe79c04f	-0.24389766
246	0x3df3c7ed	0.11903367
247	0xbd1dae39	-0.03849623
248	0xbd96c41e	-0.07361625
249	0xbe193f6d	-0.14965601
250	0x3dcfc599	0.10145111
251	0x3cfd43d5	0.030916134
252	0x3e3275f0	0.17427802
253	0x3e086270	0.13318801
254	0xbab4798c	-0.0013769134
255	0xbd191b93	-0.037379812

actor.2.bias f4 [128]
0	0x3d53e98e	0.051736407
1	0xbe5a717f	-0.21332358
2	0xbce4b7dd	-0.027919704
3	0x3d026dbf	0.031842943
4	0xbe20d6ab	-0.1570689
5	0xbd419f17	-0.04727086
6	0x3d769ea1	0.060209874
7	0xbe24404a	-0.1604015
8	0xbe045aea	-0.12925306
9	0xbbc749b4	-0.006081784
10	0xbea078d4	-0.31342185
11	0xbe313de6	-0.17308769
12	0xbe22bd1c	-0.15892452
13	0xbe495012	-0.1965945
14	0x3bcf095e	0.0063182553
15	0xbda369ab	-0.07979139
16	0x3c89ef4f	0.016837744
17	0xbe01d059	-0.12677135
18	0x3da9e7db	0.08296176
19	0x3c7218b8	0.014776401
20	0x3da0559d	0.078288294
21	0x3d7d7e66	0.06188812
22	0xbd002b6e	-0.031291418
23	0xbd0d08cb	-0.034432214
24	0x3dd7881a	0.10524006
25	0xbdecb4d3	-0.11557927
26	0x3d1cbfcd	0.038268853
27	0xbdb52858	-0.088455856
28	0xbcb657fd	-0.022258753
29	0xbd44eb81	-0.048076157
30	0xbdbb6cda	-0.09151621
31	0xbcfc216f	-0.030777661
32	0xbe065326	-0.13117656
33	0xbd47ff73	-0.0488276
34	0xbc18663c	-0.009301718
35	0xbd7e18a4	-0.062035218
36	0xbdc3b6b5	-0.09556333
37	0x3c0f6c97	0.008753917
38	0xbcc4345c	-0.023950748
39	0xbe02a017	-0.12756382
40	0x3bb8d274	0.0056403223
41	0xbc1ccd81	-0.00957048
42	0x3c9467d1	0.01811591
43	0xbc395795	-0.011312385
44	0xbbc1fc79	-0.0059199897
45	0xbe024bc7	-0.1272422
46	0xbe118d7f	-0.14214133
47	0x3c11f23a	0.008907849
48	0xbdc4c00a	-0.09606941
49	0xbc867092	-0.0164111
50	0xbe9c4602	-0.30522162
51	0x3ca452ef	0.020059077
52	0xbc22a799	-0.009927654
53	0xbe04f713	-0.12984876
54	0x3c0d0a3e	0.008608399
55	0xbe1c70b6	-0.15277371
56	0x3bf4f236	0.007475163
57	0xbdba9118	-0.09109706
58	0xbe31cc86	-0.17363176
59	0x3dab6670	0.08369148
60	0x3db4702f	0.0881046
61	0xbd7b52fa	-0.06135843
62	0xbd77217d	-0.06033467
63	0x3ca94f6e	0.020667758
64	0xbccd8ee5	-0.025092551
65	0xbd7dbc87	-0.06194737
66	0xbd837a64	-0.064198285
67	0x3c9c9e51	0.01911846
68	0x3d42cec6	0.047560476
69	0xbbede999	-0.007260513
70	0x3d40ed98	0.047101587
71	0xbd23a74f	-0.03995448
72	0xbe752994	-0.23941642
73	0x3b4b360c	0.0031007556
74	0xbbae59dc	-0.0053207707
75	0xbdf3cf19	-0.11904735
76	0xbd9080c7	-0.07055812
77	0xbceb469e	-0.028720196
78	0xbdd5d41f	-0.104408495
79	0xbe306a05	-0.17227943
80	0xbd39f4e0	-0.045399547
81	0xbdd32f1f	-0.10311722
82	0xbdb16c87	-0.08663278
83	0xbc6066e7	-0.013696409
84	0xbdaff89a	-0.08592339
85	0xbd022b95	-0.031779844
86	0xbe60ff88	-0.21972477
87	0x3c52402f	0.012832685
88	0xbd90af23	-0.07064655
89	0x3dec2459	0.1153037
90	0xbd0fd8c1	-0.035118822
91	0x3d9d4fa5	0.076812066
92	0x3cd618bf	0.026134847
93	0xbd212d95	-0.03935011
94	0xbd8b0de4	-0.06789759
95	0xbc9a89df	-0.01886457
96	0xbcc27d55	-0.023741404
97	0xbe3c66ee	-0.1839864
98	0xbd8f2d8f	-0.069911115
99	0x3c997f2c	0.018737398
100	0xbd8068d9	-0.06269998
101	0xbd3641b7	-0.044496264
102	0x3ce163c8	0.0275134
103	0xbcf3903b	-0.02973186
104	0xbd852b0b	-0.065023504
105	0x3d6395c8	0.055562764
106	0x3da5a2a9	0.080876656
107	0xbdbdce49	-0.092678614
108	0xbdc70d96	-0.09719388
109	0xbe1a67c2	-0.15078643
110	0xbdba840d	-0.09107218
111	0x3c0591fa	0.008152479
112	0x3dfc6425	0.123237886
113	0x3d88c478	0.066780984
114	0xbd0112d5	-0.0315121
115	0xbd9ca45c	-0.076485366
116	0xbcfa1b10	-0.030530483
117	0xbe0f8702	-0.14016345
118	0x3d95a292	0.073063985
119	0x3d821b15	0.06352822
120	0xbcb5d6c7	-0.02219714
121	0xbe2b1992	-0.16708973
122	0xbce5e983	-0.028065449
123	0xbb0a2b55	-0.0021082957
124	0xbe615020	-0.22003222
125	0xbc0f0150	-0.00872834
126	0xbd157906	-0.03649237
127	0x3e2b4e47	0.16729079

actor.4.weight f4 [64, 128]
0	0xbda81b76	-0.08208363
1	0x3cb2d6f7	0.021831019
2	0xbe905692	-0.28191048
3	0x3dc37668	0.095440686
4	0xbd3c9be9	-0.046047125
5	0x3d5f3688	0.054495364
6	0xbc7a944d	-0.015294147
7	0xbdde85a2	-0.10865332
8	0xbd5289c8	-0.05140093
9	0x3dacb90b	0.08433732
10	0xbd86f9d4	-0.0659062
11	0xbd7ed791	-0.0622173
12	0x3d4453d5	0.04793151
13	0xbded176f	-0.11576735
14	0x3dbf8ed9	0.09353418
15	0x3e233c97	0.15941082
16	0xbc3a3ccd	-0.011367035
17	0xbe7f4965	-0.24930342
18	0xbd40c334	-0.04706116
19	0xbdb0923a	-0.086216405
20	0xbe89c97b	-0.2691153
21	0xbe373ce7	-0.17894326
22	0x3e1b0e82	0.15142253
23	0x3ce90a19	0.028447198
24	0xbe0579ac	-0.13034695
25	0x3cda41a3	0.026642626
26	0xbe295da1	-0.16539623
27	0x3c8cccda	0.017187525
28	0x3d152d06	0.03641989
29	0x3e177f71	0.14794709
30	0x3e130302	0.14356616
31	0xbd04c2f7	-0.032412495
32	0xbdb9ae58	-0.090664566
33	0xbd786b28	-0.060649067
34	0x3caea9eb	0.021321258
35	0xbd80df8f	-0.062926404
36	0xbdbb7ce3	-0.091546796
37	0x3e37bf2e	0.17944023
38	0xbe14d392	-0.14533833
39	0xbd200a6e	-0.039072447
40	0x3d7ed282	0.062212475
41	0x3e4f6c9b	0.20256273
42	0x3cf0724f	0.029351382
43	0x3d3292ff	0.043597218
44	0xbdd0d0ff	-0.10196113
45	0x3dc14c71	0.09438408
46	0xbe094036	-0.13403401
47	0xbe04f2bd	-0.12983222
48	0xbd2418ef	-0.04006284
49	0x3b87c5f7	0.0041434723
50	0xbaa04c93	-0.0012229852
51	0x3d917da6	0.07104044
52	0x3d8a16c6	0.06742625
53	0xbd088b4e	-0.033335976
54	0x3d1479c1	0.036248926
55	0xbdf29740	-0.11845255
56	0xbe784f5b	-0.24249022
57	0xbe2774aa	-0.16353098
58	0x3ceedef7	0.029159052
59	0x3b9e1e68	0.004825402
60	0x3da033a6	0.07822351
61	0xbcf5b48a	-0.029993314
62	0xbe8a5cd1	-0.27023938
63	0xbe5eb39e	-0.21748206
64	0x3ce23514	0.0276132
65	0xbc2d2a79	-0.010569208
66	0xbdf98382	-0.12183286
67	0x3dc74280	0.09729481
68	0xbcfa3d30	-0.030546755
69	0xbe53e1d5	-0.20691617
70	0x3dfa9c4e	0.12236844
71	0xbe3d755b	-0.18501799
72	0x3df1ade5	0.11800746
73	0x3da48dac	0.08034834
74	0xbaf36632	-0.0018569885
75	0xbd082ab5	-0.033243854
76	0xbd13f59e	-0.03612291
77	0xbe47e450	-0.19520688
78	0x3cdb9025	0.026802132
79	0xbd52d53d	-0.05147289
80	0xbe4ffdf9	-0.20311727
81	0x3d966a82	0.073445335
82	0x3d5fa062	0.054596312
83	0x3dbeb598	0.0931198
84	0xbdcba93f	-0.099443905
85	0xbdddc4e6	-0.10828571
86	0xbe126da8	-0.14299643
87	0x3c191420	0.009343177
88	0xbc627de7	-0.013823963
89	0x3bd07df8	0.006362673
90	0x3cc20235	0.023682693
91	0x3d0c1256	0.034197174
92	0xbd0d49ac	-0.034494087
93	0xbbe06944	-0.006848486
94	0xbcfeece2	-0.031118814
95	0x3decf86c	0.1157082
96	0xbde45fac	-0.111510605
97	0xbdce0a9e	-0.10060619
98	0x3bd9884f	0.0066385637
99	0xbe1644b4	-0.14674646
100	0xbea56a2c	-0.32307565
101	0xbe269079	-0.1626605
102	0xbe6486a2	-0.22316983
103	0xbdc6f3e0	-0.09714484
104	0x3e10695f	0.14102696
105	0x3dad9c7c	0.08477113
106	0x3d9ba634	0.0760006
107	0x3d9cc93c	0.0765557
108	0xbd4ed4e9	-0.050496016
109	0xbda13eb7	-0.0787329
110	0x3d4f2e65	0.050581355
111	0xbe2e3d94	-0.17015678
112	0xbbba6c5e	-0.005689188
113	0xbb42a85d	-0.0029702403
114	0xbd1d4887	-0.038399246
115	0xbcd01416	-0.025400203
116	0x3d279212	0.040910788
117	0xbdc6d59d	-0.09708712
118	0x3d793bec	0.06084816
119	0xbe254cd5	-0.1614259
120	0x3cf18b07	0.029485239
121	0xbd1e01de	-0.038576
122	0x3e16b3a9	0.14716972
123	0xbe5a4c7c	-0.21318239
124	0x3d4a4b5b	0.04938827
125	0xbe19da4a	-0.15024677
126	0x3d472daf	0.04862755
127	0xbcb5d153	-0.02219454
128	0xbe628fb3	-0.2212513
129	0xbcf152d3	-0.029458439
130	0xbe4f2a56	-0.20230994
131	0xbdd90193	-0.105960034
132	0xbe3f597d	-0.18686481
133	0xbd96b281	-0.07358266
134	0x3dc5abaa	0.09651883
135	0xbe6b5959	-0.22983302
136	0x3e2c472d	0.16824026
137	0xbea8acc6	-0.32944316
138	0xbdbeccf8	-0.093164384
139	0xbceb8236	-0.028748613
140	0x3b82a858	0.0039873533
141	0x3d86b322	0.065771356
142	0x3d972437	0.07379954
143	0x3d912efb	0.07089039
144	0xbd7f0940	-0.06226468
145	0x3da8a701	0.082349785
146	0xbdb1158b	-0.08646687
147	0x3d1163cf	0.035495576
148	0xbe0aae1e	-0.13542983
149	0xbcee0315	-0.029054204
150	0xbd9293b0	-0.071570754
151	0xbe3e1970	-0.18564391
152	0xbd0b5ac4	-0.034022108
153	0xbd318f6f	-0.04334968
154	0xbe271daf	-0.16319917
155	0xbd8a89aa	-0.067645386
156	0x3cf4ff7c	0.02990698
157	0x3e603350	0.21894574
158	0x3d34db16	0.04415425
159	0xbde6b13a	-0.11264272
160	0x3da75ff7	0.08172601
161	0x3d82891a	0.06373806
162	0xbdff84ed	-0.124765255
163	0x3d36fd48	0.04467514
164	0xbd2fa668	-0.042883307
165	0xbce40c03	-0.027837759
166	0xbe1ca8c5	-0.15298755
167	0xbd76b078	-0.060226887
168	0xbc896033	-0.016769504
169	0x3e10ba84	0.1413365
170	0x3e0553a4	0.13020188
171	0xbda9965f	-0.08280634
172	0xbe0d1bc7	-0.13780127
173	0xbca62fbf	-0.020286439
174	0x3d5874ac	0.052845642
175	0x3c90afa9	0.017661886
176	0x3c0f8cad	0.008761567
177	0xbd2de878	-0.042458028
178	0x3df513d1	0.1196667
179	0xbd965f81	-0.07342435
180	0x3defce57	0.11709278
181	0x3d0be8c7	0.03415754
182	0xbdfdc4fb	-0.12391087
183	0x3d3fcc6c	0.04682581
184	0xbe4240ee	-0.18970081
185	0xbe2cf502	-0.16890338
186	0x3c3a48b3	0.011369872
187	0xbe244371	-0.16041352
188	0x3debcead	0.1151403
189	0x3ce1bc3e	0.027555581
190	0xbdc5e720	-0.09663224
191	0x3c727b99	0.014799976
192	0x3d5ae97e	0.05344533
193	0xbcac679f	-0.021045504
194	0xbd3b9f1d	-0.04580604
195	0x3d2dce1c	0.04243289
196	0xbea46541	-0.321085
197	0xbd312a33	-0.043253135
198	0x3cdc2918	0.026875064
199	0xbd9af508	-0.07566267
200	0xbd181858	-0.03713259
201	0x3c57ad7c	0.0131639205
202	0xbd2a8959	-0.04163489
203	0xbd2ade14	-0.041715696
204	0x3d57f42e	0.052723102
205	0xbe8e0164	-0.27735436
206	0xbc5c615a	-0.013450945
207	0x3da4f3b7	0.080542974
208	0x3cf6a008	0.030105606
209	0xbe5114cf	-0.20418094
210	0x3ba431b6	0.005010809
211	0xbe0044df	-0.12526272
212	0x3d1d8cc5	0.038464326
213	0xbeb89363	-0.36049947
214	0xbdd1e7f6	-0.10249321
215	0x3dad0fd7	0.08450287
216	0x3d3e9ff0	0.046539247
217	0xbe399d7a	-0.18126479
218	0x3e00b2e1	0.12568237
219	0xbcaaa355	-0.020829836
220	0x3c8f743b	0.017511478
221	0xbe7527df	-0.23940991
222	0x3dcb08b4	0.09913769
223	0x3dbf31f8	0.09335703
224	0xbe642c22	-0.2228246
225	0xbdb46a77	-0.08809369
226	0xbdbf31e4	-0.09335688
227	0xbe47cd64	-0.19511944
228	0xbe7a7ad3	-0.24460916
229	0xbe68ed3c	-0.22746748
230	0xbdcf81e6	-0.10132198
231	0xbd1aa365	-0.03775348
232	0x3d8ea3a8	0.06964809
233	0xbcf4626e	-0.029832091
234	0x3d8ba160	0.06817889
235	0xbd33d2ee	-0.04390233
236	0xbdc2dcf4	-0.095148
237	0xbe2ef3ad	-0.17085142
238	0x3d5def12	0.054183073
239	0xbdc5ad81	-0.09652234
240	0xbc456e3e	-0.01205021
241	0x3de9cf7f	0.1141653
242	0xbce1a214	-0.027543105
243	0x3d9652ef	0.07340037
244	0xbd0163e2	-0.031589396
245	0x3e12cf77	0.14336954
246	0xbd009d6e	-0.031400137
247	0xbe860119	-0.26172712
248	0xbb7e8ed9	-0.0038842468
249	0xbd299c1f	-0.041408654
250	0x3d5da7d9	0.05411515
251	0xbda1874d	-0.07887135
252	0xbd34e5ca	-0.044164456
253	0xbcf6ee56	-0.030142944
254	0xbe0d5c2b	-0.1380469
255	0x3b73b4f1	0.0037186707

actor.4.bias f4 [64]
0	0xbccc158a	-0.024912614
1	0xbdf4b3e3	-0.11948373
2	0x3b6e96dd	0.003640584
3	0x3e5c2d59	0.21501674
4	0xbe0c5127	-0.13702832
5	0xbc2b048c	-0.010438096
6	0xbe284fde	-0.16436717
7	0xbe0b33d9	-0.13593997
8	0x3d12f073	0.03587384
9	0x3cee3f8a	0.029083032
10	0xbe0bc0cf	-0.1364777
11	0xbea34683	-0.31889734
12	0xbcf97b90	-0.030454427
13	0xbda0436a	-0.07825358
14	0xbb4e3e9d	-0.0031470426
15	0xbd02e9ed	-0.03196137
16	0xbc9b1930	-0.018932909
17	0xbd15e496	-0.03659495
18	0xbe2bd92c	-0.16782063
19	0xbe54543f	-0.20735262
20	0x3dc35759	0.095381446
21	0xbdd8ec86	-0.10591988
22	0xbdbb5b55	-0.091482796
23	0x3da2a529	0.07941658
24	0xbe21df4b	-0.15807836
25	0xbc97d188	-0.01853253
26	0xbe2ce4ec	-0.16884202
27	0xbe05d9d9	-0.13071384
28	0xbb648064	-0.0034866566
29	0xbe4329e4	-0.19058949
30	0x3d941c9c	0.07232019
31	0x3d890fc3	0.066924594
32	0xbe79d96f	-0.2439935
33	0xbcc37478	-0.023859248
34	0xbe064b7d	-0.13114734
35	0x3e0d2719	0.13784446
36	0xbe0347a6	-0.128203
37	0xbc5d8fbe	-0.01352304
38	0xbd626cfd	-0.05527972
39	0xbdc785af	-0.09742295
40	0xbdfe616c	-0.124209255
41	0xbdbbd363	-0.09171178
42	0xbd40dc4d	-0.047085095
43	0x3d5184cf	0.051152047
44	0xbd83e4cc	-0.06440124
45	0xbd8be330	-0.06830442
46	0xbded949a	-0.11600609
47	0xbedd5e58	-0.4323604
48	0x3e36a5e1	0.17836715
49	0xbe2600ac	-0.16211194
50	0x3e2b41ce	0.16724321
51	0xbd218409	-0.03943256
52	0x3c261f99	0.010139369
53	0xbc4abf07	-0.012374646
54	0xbdd3c033	-0.103393935
55	0xbd2e60f7	-0.04257294
56	0xbd680170	-0.056641996
57	0x3df0d168	0.11758691
58	0xbce6e2c4	-0.028184302
59	0x3dc47edf	0.09594511
60	0x3dd0521f	0.10171913
61	0xbde7c94f	-0.113176934
62	0xbd01cfd0	-0.031692326
63	0xbe11f0e3	-0.14252047

actor.6.weight f4 [7, 64]
0	0x3d536ec5	0.05161931
1	0xbd38f01c	-0.04515086
2	0xbeb3a002	-0.35083014
3	0x3e42e884	0.1903401
4	0xbb85f2d5	-0.0040877857
5	0x3d8cc96d	0.068743564
6	0xba534e07	-0.0008060638
7	0xbd80e0c7	-0.06292873
8	0x3d3825cc	0.04495792
9	0x3d25b647	0.040457036
10	0xbd84edbf	-0.06490659
11	0x3cd9e8e4	0.026600309
12	0xbc6267fd	-0.013818738
13	0xbe06b1bf	-0.13153742
14	0xbd1165fd	-0.035497654
15	0xbe338128	-0.17529738
16	0x3d0947b3	0.033515643
17	0xbdf6a624	-0.120434076
18	0xbe463fd6	-0.19360289
19	0xbc224264	-0.009903524
20	0xbdb2a08d	-0.08722029
21	0xbce73365	-0.028222749
22	0x3c8c38aa	0.017116863
23	0x3e3c56fa	0.18392554
24	0x3d4ac235	0.049501617
25	0x3e27bff7	0.16381823
26	0xbd46ee50	-0.048567116
27	0x3e0a903c	0.13531584
28	0xbddc52fd	-0.10758016
29	0xbcc7de6b	-0.02439805
30	0xbcd6e144	-0.026230462
31	0x3c32dc50	0.010916784
32	0x3e0706d4	0.13186198
33	0x3cb92c0f	0.022604017
34	0xbd867fe0	-0.06567359
35	0xbe7aab98	-0.2447952
36	0x3cfde1cf	0.030991463
37	0x3bddcf6d	0.006769112
38	0xbe98de99	-0.2985733
39	0xbdaaafe2	-0.08334328
40	0xbeaba3c7	-0.3352339
41	0xbd4e728b	-0.050402205
42	0x3d213607	0.039358165
43	0xbd27887a	-0.04090164
44	0xbd45f1c7	-0.04832628
45	0xbcdd6223	-0.027024334
46	0xbd15710a	-0.036484756
47	0xbdd87b07	-0.105703406
48	0x3dd13a96	0.102162525
49	0xbe4ced49	-0.20012392
50	0x3da13f15	0.0787336
51	0x3d9af141	0.07565547
52	0xbd51d516	-0.051228605
53	0xbd0403c8	-0.03223017
54	0xbe1ea026	-0.1549078
55	0x3d927180	0.07150555
56	0xbe33b2fd	-0.17548747
57	0x3dbe5b12	0.09294714
58	0xbbd3af83	-0.0064601316
59	0x3e2f741c	0.17134136
60	0xbde0414d	-0.10949955
61	0x3e062b59	0.13102473
62	0xbd8b6c34	-0.068077475
63	0xbc9c2161	-0.019058885
64	0x3e385c2d	0.18003912
65	0x3e1b781c	0.15182537
66	0x3de4c92d	0.11171184
67	0xbac0717a	-0.0014682256
68	0xbd554ab9	-0.052073214
69	0x3dc39c17	0.09551256
70	0x3dc797de	0.09745763
71	0xbe3f7d09	-0.18700041
72	0x3d89bc0b	0.067253195
73	0xbd1601a2	-0.03662265
74	0x3dd2c5a8	0.10291606
75	0x3cbca443	0.023027545
76	0x3c687e6b	0.014190297
77	0x3e881a99	0.26582792
78	0x3dd31afa	0.1030788
79	0xbdeae22e	-0.114689216
80	0x3dde3779	0.10850424
81	0xbe876b76	-0.26449174
82	0x3d9bd964	0.07609823
83	0x3d57e8f9	0.052712414
84	0xbd4e423f	-0.050356146
85	0x3e387fe4	0.18017536
86	0xbd50796b	-0.050897043
87	0x3d12d370	0.035846174
88	0x3cd07d4b	0.02545037
89	0xbd8b7460	-0.06809306
90	0xbdc6aaaf	-0.09700524
91	0x3cf57e60	0.029967487
92	0xbd01f5c3	-0.031728517
93	0xbd2dcd66	-0.04243221
94	0x3d5a5e60	0.05331266
95	0x3cd26642	0.025683526
96	0x3e35a2ce	0.17737886
97	0xbe360dae	-0.17778656
98	0xbd07eb54	-0.03318341
99	0x3ddb8c17	0.107200794
100	0x3d4aae09	0.04948238
101	0xbdc8ef51	-0.09811271
102	0x3d5e2b41	0.05424047
103	0xbdce46a2	-0.10072066
104	0x3d00d984	0.03145744
105	0xbbb090d3	-0.005388358
106	0x3d9ea057	0.07745426
107	0x3c9e4332	0.01931915
108	0x3dbf7253	0.093479775
109	0xbd14fcbd	-0.036373843
110	0xbd0d49c9	-0.034494195
111	0xbc739816	-0.014867803
112	0x3e385cda	0.1800417
113	0x3dc84ceb	0.09780296
114	0xbde78383	-0.11304381
115	0x3c9f16fc	0.01942014
116	0xbdb06e4f	-0.0861479
117	0x3d179d25	0.0370151
118	0x3db49b2d	0.0881866
119	0xbdfe3271	-0.12411965
120	0x3c5ae45e	0.013360111
121	0xbc8ddd62	-0.017317478
122	0x3a9272c7	0.0011173122
123	0x3decb6f8	0.11558336
124	0xbde92337	-0.1138367
125	0xb929ca25	-0.000161924
126	0x3d007a4c	0.03136663
127	0x3da303f5	0.07959739
128	0xbbfc4401	-0.0076985364
129	0xbe2b8382	-0.16749385
130	0xbc12c928	-0.008959092
131	0xbe10ea78	-0.14151943
132	0x3d5c2ed8	0.05375561
133	0x3ce7c8f1	0.028294059
134	0xbc3c0341	-0.011475385
135	0xbc5c15b4	-0.013432909
136	0x3c9de117	0.01927237
137	0xbd106785	-0.035254974
138	0xbe37b706	-0.17940912
139	0x3e48e4b8	0.196185
140	0x3e16c3f4	0.14723188
141	0xbd95f553	-0.073221825
142	0xbd832d64	-0.06405142
143	0xbd05d1b6	-0.0326707
144	0xbd4134bf	-0.047169443
145	0xbcf888ae	-0.030338611
146	0xbeff1c07	-0.4982607
147	0x3e15271e	0.14565703
148	0x3e510a48	0.20414078
149	0xbcf43ff0	-0.029815644
150	0x3c5930f0	0.0132562965
151	0xbe021320	-0.12702608
152	0xbdbac5b1	-0.09119738
153	0xbdf7850a	-0.12085922
154	0x3e00d9b3	0.12583046
155	0xbbb2c968	-0.0054561384
156	0xbd1770c2	-0.03697277
157	0x3dffaf68	0.12484628
158	0xbd9770b3	-0.073945425
159	0xbd834378	-0.06409353
160	0x3d417ae0	0.047236323
161	0xbd4983d6	-0.049197994
162	0xbe6b88e1	-0.23001434
163	0x3bee1bd9	0.0072665033
164	0xbde1276e	-0.10993849
165	0x3c1aa68e	0.009439124
166	0x3ca547d2	0.020175848
167	0x3dde7239	0.1086163
168	0xbcabe980	-0.020985365
169	0x3e41f5ad	0.18941374
170	0x3daf4d55	0.08559672
171	0x3e2225dc	0.15834755
172	0xbd4e64d3	-0.050389122
173	0xbc70394c	-0.014662098
174	0xbcee52be	-0.029092189
175	0x3e1afd3f	0.15135668
176	0xbe2103c5	-0.15724094
177	0x3d856fcc	0.06515464
178	0xbe324e96	-0.1741279
179	0x3d26be82	0.040709026
180	0xbc0691ea	-0.0082135
181	0x3e581e1e	0.21105239
182	0x3c844dd0	0.016150385
183	0xbe8b44b6	-0.2720086
184	0x3e5cf620	0.21578264
185	0xbccce408	-0.025011078
186	0xbca58310	-0.020204097
187	0xbda1b5c1	-0.07895995
188	0xbd5eb68c	-0.05437331
189	0xbd71c339	-0.05902407
190	0x3cb6c5ae	0.022311058
191	0xbe00161f	-0.12508439
192	0xbcef0626	-0.029177736
193	0x3ddb222d	0.10699878
194	0xbdc6d1b1	-0.09707964
195	0x3d26a538	0.04068491
196	0xbe881e37	-0.26585552
197	0x3e1287a6	0.14309558
198	0xbd13a3f6	-0.036045037
199	0x3cf5bce1	0.029997291
200	0xbc403d7a	-0.011733407
201	0xbe0fedc5	-0.14055546
202	0x3df5c071	0.11999596
203	0xbcbf3619	-0.023341225
204	0x3c0ebdee	0.008712275
205	0xbd058371	-0.032596055
206	0xbdf7994e	-0.120897874
207	0xbd98a2f2	-0.07452954
208	0xbd832347	-0.06403213
209	0x3d26600a	0.040618934
210	0xbd47f39a	-0.0488163
211	0x3e295c55	0.16539128
212	0x3cb0be35	0.021575073
213	0x3cf0207e	0.029312368
214	0xbdf4f96f	-0.11961638
215	0xbd8f6ed9	-0.070035644
216	0xbdcb311b	-0.099214755
217	0x3da288c8	0.07936245
218	0xbdb77dbc	-0.08959529
219	0x3d00aae5	0.031412978
220	0x3cdd64cc	0.027025603
221	0xbd4a54ef	-0.049397405
222	0xbd3375ad	-0.043813396
223	0x3e7a2fca	0.24432293
224	0xbd160e7c	-0.036634907
225	0x3d6b5364	0.057452574
226	0xbc82b4e1	-0.01595539
227	0x3d2aa236	0.041658603
228	0xbe02019a	-0.12695923
229	0xbccfc8b8	-0.025364265
230	0xbc147cb5	-0.009062936
231	0xbe2f8f2f	-0.17144464
232	0x3cb92873	0.022602296
233	0x3d9d87f1	0.076919444
234	0xbe0055c2	-0.12532714
235	0x3da7e776	0.081984445
236	0xbe60c5b7	-0.21950422
237	0x3d80ad26	0.062830254
238	0x3d79b75a	0.060965873
239	0x3c8c772f	0.017146675
240	0xbdb0c945	-0.08632139
241	0x3c14b002	0.009075167
242	0x3e0a354b	0.13496892
243	0xbe5f1414	-0.21785003
244	0xbd40db32	-0.04708404
245	0x3d5c12d2	0.053728886
246	0xbe4e105b	-0.20123427
247	0x3cda3af7	0.026639445
248	0xbd037f5f	-0.032103892
249	0xbd32f2ab	-0.043688457
250	0x3d8aaca1	0.067712076
251	0x3d5b5815	0.0535508
252	0x3d6c3aac	0.05767314
253	0xbe56ccc8	-0.20976555
254	0x3d825cd7	0.06365364
255	0xbd086211	-0.03329665

actor.6.bias f4 [7]
0	0x3d6127e6	0.05496969
1	0xbcfae818	-0.030628249
2	0xbe3300fb	-0.17480843
3	0xbcb0bb8d	-0.021573806
4	0x3d13a6ea	0.036047854
5	0xbd061d88	-0.032743007
6	0xbeaa4484	-0.33255398
