logs/rsl_rl/needle_lift_fixed_obj_pos/2025-01-31_00-12-22/exported/policy.onnx (onnx, 202494 bytes, 8 tensors)

actor.0.weight f4 [256, 33]
000000 eb 44 90 bd 01 56 3a bf 63 68 da be 49 be 90 3e
       -0.07044395 -0.7278748 -0.42657766 0.28270176
000010 ea 76 d9 3d cd a9 15 3e f1 49 26 3f 21 e3 26 bf
       0.10618384 0.14615555 0.64956576 -0.6519032
000020 0f b0 d9 3d 22 5f 39 3d 59 9f 75 be fd f2 39 3d
       0.10629284 0.04525674 -0.23986568 0.045397747
000030 99 2a d0 3d 2f c2 11 3d d3 f5 0d be 17 0d 2f be
       0.10164375 0.03558558 -0.13863306 -0.17094837
000040 90 43 d8 3d 66 72 a7 be 4e 18 89 3f 76 73 1c be
       0.105597615 -0.32704467 1.0710542 -0.1527842
000050 e1 b4 29 3e 1d 40 45 3e 20 52 d2 bd 76 bd 1a 3e
       0.16572906 0.19262739 -0.1026957 0.15111336
000060 cb 9e b5 3d 38 6f 11 be f7 2b b5 3d 2d 18 8e bc
       0.08868178 -0.14202583 0.08846276 -0.017345512
000070 9d 1b fa bd ab 44 56 3d f9 73 71 3d 6e 89 95 bd
       -0.12212298 0.05231158 0.05894849 -0.07301603
000080 7f 2b 73 bd ee 3a 91 3e 87 a5 e2 bf 6b 48 d1 be
       -0.059367653 0.28365272 -1.7706765 -0.40875563
000090 17 73 80 3e c0 c9 67 be f8 30 51 3d 9b 3b b8 bd
       0.25087807 -0.22635555 0.05107209 -0.08995744
0000a0 8e fe 56 3e 64 26 85 bd 9e a2 9b be 82 b9 f4 bd
       0.20995542 -0.06501463 -0.30397505 -0.11949445
0000b0 8f 37 25 bc 35 c2 31 bd 22 8f fe bc 23 be 2f be
       -0.010084047 -0.0433981 -0.03107411 -0.17162375
0000c0 31 32 91 bd a7 cb 69 3e cf 11 cb be 4f 01 0b bf
       -0.070896514 0.22831593 -0.39662024 -0.5429887
0000d0 4b 68 f2 3c 23 49 00 3e fb 88 0a 3e a2 54 3d be
       0.029590746 0.125279 0.13528816 -0.18489316
0000e0 5a 41 2b 3e ad 96 76 bd c4 0f 34 39 eb 26 ac bb
       0.16724148 -0.06020229 0.00017172011 -0.005253663
0000f0 4d db c1 bd c2 a5 8a bd 1e aa 5f 3d 53 d8 f2 3c
       -0.094656564 -0.06769897 0.054605596 0.029644167
000100 59 94 1b bd 6a 77 c6 bd 6e 1b b5 3f c8 5e 72 bf
       -0.037983272 -0.09690745 1.4148996 -0.94675875
000110 f4 64 b6 be d0 d1 4f 3e 9a ab 9b 3d fa 19 27 3e
       -0.35623896 0.20294881 0.0760109 0.16318503
000120 a4 30 e8 be 56 61 00 3f 35 92 b9 3e 26 9d 2c be
       -0.4534961 0.5014852 0.3624436 -0.16856822
000130 4c 3b d4 3c 8f c6 ce bc d9 aa ad 3c 44 0f 65 bd
       0.025907181 -0.025241164 0.02119963 -0.05592276
000140 97 68 83 be ed bc 22 3e 54 1f 80 bd 68 18 cc 3d
       -0.25665733 0.15892382 -0.06255975 0.099655926
000150 2a 74 73 bf 72 e5 d2 bc a3 94 6a 3d 65 5d 11 be
       -0.9509913 -0.025744174 0.057270657 -0.14195783
000160 fc 72 38 3d 95 77 77 bd c9 3c 97 bb f8 2c 8d 3d
       0.045031533 -0.060416777 -0.0046154005 0.06893343
000170 fa 0e 8f 3d 50 7b dc 3d 0a 6e 77 3c 1a 41 b1 3b
       0.069852784 0.107657075 0.015101919 0.005409372
000180 2b 9e 8d bd 8e be 73 3d 3f 40 57 bd 07 41 a0 3f
       -0.06914934 0.0595079 -0.052551504 1.2519845
000190 73 88 89 3f d0 0a 25 bf c6 18 13 be 5d 94 33 be
       1.0744766 -0.64469624 -0.14364919 -0.17537065
0001a0 73 b2 00 3e b4 8d 18 bf 39 03 de 3e b9 74 dc bd
       0.12568073 -0.5959122 0.43361834 -0.107644506
0001b0 b5 3c 43 3e 88 d6 b9 bd 43 e0 98 3d 53 cc 7b 3d
       0.19066127 -0.09074122 0.074646495 0.061474156
0001c0 66 7f 70 3d 98 04 59 3e 7f 36 81 be ba 66 1f bd
       0.058715247 0.21193159 -0.2523689 -0.038916327
0001d0 0c 3c 8e 3e c7 37 ad bf db 1f 15 be 51 c4 1b bc
       0.27780187 -1.3532647 -0.14562933 -0.009507255
0001e0 ee b3 08 bd fa 07 d2 3d 59 e7 0b 3c da df 2c 3e
       -0.03337472 0.10255428 0.008539044 0.16882268
0001f0 10 e6 16 3e b3 00 88 3d d2 5c 2a bd 0a d9 5e be
       0.147362 0.06640758 -0.041592427 -0.21762481
000200 05 d3 69 bd 82 ad f3 bc 28 5d 08 3e 76 99 15 3b
       -0.05708601 -0.02974582 0.13316786 0.0022827066
000210 4b 8f 8e bf 14 3a 47 bf 28 7c 38 bf 22 ec 91 3e
       -1.113748 -0.77822995 -0.7206445 0.28500468
000220 c2 28 83 3e 92 36 69 3c f8 64 a3 bc 45 dd 6e bd
       0.25617033 0.014234202 -0.019945607 -0.058316488
000230 27 74 4f be c9 11 b0 3d 3d c0 1c be 0a 76 57 bc
       -0.20259152 0.08597142 -0.15307708 -0.013150701
000240 43 1d 30 bd ed 4e c2 bd ca 89 4e bd 18 e4 ac bb
       -0.042996656 -0.0948771 -0.050424375 -0.0052762143
000250 f4 b0 c2 3e 8c 63 d9 3d fa 3c a9 3f 53 ae a1 bd
       0.3802563 0.1061469 1.3221734 -0.07894578
000260 2b 39 23 bc 94 2d 90 3d ca 6c 31 3d da 4e 1e be
       -0.00996236 0.07039943 0.04331664 -0.15459767
000270 8c f3 b1 3d 15 21 dc bd 90 15 65 bd 49 dc a0 3d
       0.08689031 -0.107484974 -0.055928767 0.07854516
000280 b5 37 96 bd be 5d 17 3d ed 85 34 bc d8 50 7f 3c
       -0.07334844 0.036954634 -0.0110182585 0.0155832395
000290 a4 30 76 bd 76 73 77 3f a9 d1 87 bf 6d 89 00 bf
       -0.06010498 0.96660554 -1.0610858 -0.50209695
0002a0 cc f4 92 3e c7 4a 8c 3d 57 2b 89 39 6b ff e5 be
       0.2870239 0.068502 0.00026162967 -0.4492143
0002b0 d1 41 00 3f 50 04 d6 3e 3c bf 08 bd fb 6f e8 bb
       0.5010043 0.41800165 -0.0333855 -0.0070934272
0002c0 12 07 be bd a6 6c 71 bd 51 b7 64 3d 9f c8 07 be
       -0.09278692 -0.058941506 0.055838887 -0.13260125
0002d0 ff fa f0 3d 29 d8 38 3e b4 f7 f4 3d a7 b6 c4 3d
       0.11766624 0.18051209 0.11961308 0.09605151
0002e0 79 a9 f2 3d 5b d0 32 bd 81 56 a6 3c 51 c9 13 be
       0.118487306 -0.043655735 0.02030492 -0.14432265
0002f0 73 8a 1a 3e ef a2 2f 3e d5 5e f7 bd fc bb 70 be
       0.15091877 0.17151998 -0.12078635 -0.2350921
000300 a2 4d 89 bc f3 86 3c 3e b4 0a 9b 3d df 37 5e 3c
       -0.016760651 0.18410854 0.07570401 0.013563125
000310 6e 7c 96 bc 44 4c 1d 3e 4c 2d 15 40 4e a0 14 3f
       -0.01836988 0.15361124 2.3308897 0.58057106
000320 ce 4b 68 3e 15 65 9a 3e 3e c0 60 3c ef 91 70 3e
       0.22685167 0.30155244 0.013717709 0.23493169
000330 a8 a7 6e 3e c2 4c 12 3e 38 cb f7 3e c9 c1 11 3e
       0.23306143 0.14287093 0.4839723 0.1423408
000340 7b f9 83 bd 56 73 d1 bc 3f 46 4e bd 7b 43 c7 3d
       -0.06444069 -0.025567692 -0.05035996 0.09729668
000350 9c f1 55 bc f2 82 02 bc 9e ce 10 3c e4 30 73 3d
       -0.013058092 -0.00796579 0.008838324 0.059372798
000360 61 84 13 3f 8d 8a ed bb ee 64 75 3d 6c 8d 43 be
       0.5762387 -0.0072491826 0.059910707 -0.19096917
000370 23 7b 71 3e 24 ef a2 3c a9 cf 23 be 6b cd 11 be
       0.23582129 0.019889422 -0.15997185 -0.14238517
000380 2c bd c0 3b 22 75 8c 3c 72 1b 49 bd 93 b9 27 3d
       0.005881926 0.017145697 -0.04909844 0.04094846
000390 da d7 60 bd d4 b4 af bd 6f f3 ac 3d 90 88 f0 3e
       -0.054893352 -0.08579412 0.08444869 0.4697919
0003a0 86 12 2a bf 9c 81 eb bc d2 96 2d be 5f 05 83 be
       -0.66434515 -0.028748326 -0.16952065 -0.25590035
0003b0 1c 6b b3 3d 9f 94 6e 3f ee 13 3a bf 09 45 c7 3d
       0.08760664 0.9319553 -0.7268666 0.09729964
0003c0 81 e4 08 be b8 d9 d5 bd 30 89 88 bd 99 d9 d8 bd
       -0.13368417 -0.10441917 -0.066667914 -0.105883785
0003d0 bd 8b 13 bd f2 8d 3d 3e 69 0c 19 3e 82 6b 17 bb
       -0.036021937 0.18511179 0.1494614 -0.002310485
0003e0 57 be 59 3e d1 83 a4 3f 3b 0e e4 3d 94 4a 14 3e
       0.21264015 1.2852727 0.11135527 0.14481574
0003f0 a4 46 d6 3d 18 3a c7 bd 2a 40 91 bd 15 f3 ba 3c
       0.104626924 -0.097278774 -0.070923164 0.022820989

actor.0.bias f4 [256]
000000 07 d7 5f be ff b8 af 3d 3b ff 8d bd 3e a4 f0 bd
       -0.2185937 0.08580207 -0.06933447 -0.11750077
000010 29 43 2c 3e 83 1c 49 3d dd f0 13 3d b4 8e 0a 3e
       0.16822495 0.049099457 0.036118377 0.13531
000020 0b 32 27 be db 8e 43 3c 23 8a 9f bd e7 ff 6a bd
       -0.16327684 0.011935915 -0.07790019 -0.057372954
000030 4f 9f d0 bb 69 6f 4e bc ee e5 02 bc 67 aa 15 be
       -0.0063666473 -0.012599804 -0.00798939 -0.14615785
000040 74 e8 03 3d 11 e6 fa bc 22 d8 1a 3e cb ac ad bc
       0.032204106 -0.030627282 0.1512151 -0.021200558
000050 60 ec d2 3d 86 24 c9 3c 5c c0 60 be a6 76 05 be
       0.10298991 0.024553549 -0.2194838 -0.13033542
000060 5f 48 e9 3d aa 8e 07 3e a4 0c 33 be 3d cc d6 3c
       0.11390757 0.13238016 -0.17485291 0.026220435
000070 3b 37 1e be 9b cc 90 3d de e9 af 3d 91 8e 8c bd
       -0.15450756 0.070702754 0.085895285 -0.0686313
000080 e1 a9 63 be 00 a4 63 be b6 c6 99 bd 29 f5 50 3d
       -0.22232772 -0.2223053 -0.07508604 0.051015053
000090 45 dc e2 bd 2d 23 2b bd 8a 8e 76 3d dd 80 06 be
       -0.11077169 -0.041781593 0.06019453 -0.13135095
0000a0 a9 07 ca 3d 64 36 f8 bd 50 de 1c 3d d5 4c 18 be
       0.09864742 -0.12119749 0.03829795 -0.14873059
0000b0 91 ed 46 be 36 1f a8 bd e0 55 ee 3d a5 50 34 bd
       -0.19426562 -0.08209078 0.11637473 -0.04402222
0000c0 a3 9e 09 bd 2b d2 ae 3c 97 38 37 be 47 a8 15 3e
       -0.033598553 0.02134045 -0.17892681 0.14614974
0000d0 44 14 fc bd 58 d3 f9 bc 00 33 d3 3d ed bf f7 3d
       -0.12308553 -0.030496284 0.10312462 0.12097154
0000e0 cf 49 2f bd 42 7f 2a be bc b4 ac 3d ef 87 ca 3d
       -0.042795 -0.16650108 0.0843291 0.098892085
0000f0 5b ec 27 3e 85 15 38 3d 89 b4 07 3e 3b ee 46 3e
       0.16398756 0.044942398 0.13252462 0.19426815
000100 22 8a a8 bd 11 fb b2 bd 83 71 b4 3d f1 36 a0 be
       -0.08229472 -0.08739293 0.08810713 -0.31291917
000110 5d 0b b4 bd ea 72 1a bd 73 61 c4 bd 78 3c 31 be
       -0.0879123 -0.037707247 -0.095888995 -0.17308223
000120 de 5f e4 bd c1 b7 41 be 62 0e 9e 3d 69 66 86 3b
       -0.11151098 -0.18917753 0.07717587 0.0041015637
000130 24 f4 03 be 7d d2 c9 bc e8 62 68 bd 88 b6 92 3d
       -0.12886101 -0.024636501 -0.05673495 0.07163721
000140 6b eb 4f be ba f3 f6 bd c8 62 e3 3d c1 20 08 3e
       -0.20304649 -0.12058206 0.111028254 0.13293745
000150 cf e5 18 bc b8 71 e9 3d 8b 8a b9 3d b1 b0 11 bd
       -0.009332134 0.11398643 0.09059628 -0.035568897
000160 3f 8d 60 be cc 4d dc 3d 15 40 1e 3c 4b 1d 5f be
       -0.21928881 0.10757026 0.009658833 -0.21788518
000170 fd e4 1a bd 3c 6a 15 3d 34 16 df 3d 9c 4f df 3d
       -0.037816036 0.036478266 0.10892907 0.10903856
000180 b1 44 9d bd b3 be f1 3d 6a e5 f7 3d dd c2 24 3e
       -0.076791175 0.11803951 0.12104304 0.1608996
000190 88 06 02 be 96 50 a3 bd ef 7e 75 bc ed 8e 49 3e
       -0.12697804 -0.07974355 -0.014983877 0.19683428
0001a0 2d 7a ba bd 3b d1 d5 bd 52 67 0a be 8d b1 e5 3d
       -0.091053344 -0.10440298 -0.13515976 0.11215506
0001b0 af 13 21 3d ab 19 7f 3e 73 13 9c be 4a bc c6 3d
       0.039325412 0.24912135 -0.3048359 0.09703882
0001c0 f6 f9 61 be 23 7a 04 bd 33 f7 68 3e a5 87 bb 3d
       -0.22068009 -0.03234304 0.22750549 0.091567315
0001d0 2f 11 d9 3d d4 50 8c 3d a8 b4 9b bc d0 93 0f 3e
       0.10598981 0.06851354 -0.019007042 0.1402123
0001e0 c2 65 44 3e 15 16 15 be bb 75 52 bc 56 d3 60 3d
       0.19179443 -0.14559205 -0.012845452 0.054889046
0001f0 ad 91 02 bd ae c2 d9 3d 7f 7b aa bd 3e 70 68 be
       -0.03187721 0.10632835 -0.08324336 -0.22699067
000200 c8 93 27 bd 43 6a 2e 3e 36 ca 7a 3e 5d 01 8a bc
       -0.04091242 0.17032723 0.244912 -0.016846353
000210 61 ef cc 3d 02 fa 5e 3d ff 51 6f be 92 45 b9 3d
       0.100065954 0.054437645 -0.23371123 0.090464726
000220 b9 88 b5 bd b0 dc e7 bd 56 9f 0e 3d 2c 68 15 3d
       -0.088639684 -0.1132139 0.034819923 0.0364763
000230 ee 2c 0e bd b7 c7 aa bd fe b3 f6 bd 87 50 a4 bd
       -0.034710817 -0.08338874 -0.120460495 -0.08023172
000240 d5 63 0a 3d 01 e1 51 3e 37 62 a0 bb a3 a5 ee 3d
       0.033786613 0.20495988 -0.0048945206 0.116526864
000250 e7 79 99 bd 3f 04 a7 3b a4 28 6d 3d e9 93 10 3d
       -0.07493954 0.0050969417 0.057900086 0.035297308
000260 d5 50 a6 bd 30 5f cd bd 2b df 98 bd 87 9b 15 be
       -0.08120886 -0.10027921 -0.07464441 -0.1461011
000270 15 92 8f bd a2 28 f2 bc 6a d5 a6 3c a0 46 52 bd
       -0.07010285 -0.02956039 0.020365436 -0.051336884
000280 fa 44 3e bd ab 28 b4 3c fa 54 97 bd ec 57 93 3d
       -0.0464525 0.021992048 -0.07389255 0.07194504
000290 62 c1 d4 3c 59 69 d4 bd 7b b6 c3 3b e5 4f 50 bd
       0.025971118 -0.10371656 0.005972681 -0.050857443
0002a0 d1 40 3c bd a8 42 fb bb cb 20 e1 3c a7 63 a8 3c
       -0.04596025 -0.007667858 0.027481457 0.02055533
0002b0 5d 43 3c bd bf a1 cb 3d d8 04 e0 bd 0f 45 81 3b
       -0.04596268 0.0994296 -0.10938424 0.003945
0002c0 7f 43 46 bc 5f 8f db bd 30 31 dd 3c 68 c0 00 3d
       -0.012101053 -0.10720705 0.027000993 0.031433493
0002d0 e8 17 b4 3d b6 90 4b 3e ed 40 cf 3c 0e f5 e8 3d
       0.08793622 0.19879422 0.025299514 0.113748655
0002e0 8e 23 72 3e c9 a4 8b bd bf 62 cf 3c a6 8d 9b 3d
       0.23646376 -0.0681854 0.02531564 0.07595377
0002f0 93 73 33 be 96 90 d8 bd ae 08 78 be 29 02 09 3e
       -0.17524557 -0.105744526 -0.24222061 0.1337973
000300 4a 5b 10 3e 44 3c e6 3c e0 2f ce bd d6 3d ed bd
       0.14097324 0.028104909 -0.10067725 -0.1158406
000310 78 ad 3a 3e 20 ff 00 3e 57 ec 8b bd ab e3 b7 3d
       0.18230236 0.12597322 -0.068321876 0.08978971
000320 a5 7e 09 be cc f8 c7 3c 2d b0 99 bc ed 0f c4 3b
       -0.13427217 0.024410628 -0.018760765 0.005983344
000330 20 0f 96 bd f4 86 5d 3d 44 87 18 be a5 2c f5 3d
       -0.073271036 0.05408378 -0.1489535 0.11971406
000340 99 89 20 3e ec e8 b3 bd 29 17 e7 3d 31 50 69 bd
       0.1567749 -0.08784661 0.11283714 -0.056961242
000350 88 6d db bd f1 d8 81 3d 7d 5e 65 3e ca e9 11 be
       -0.10714251 0.063402064 0.22399326 -0.1424934
000360 ab c2 78 3e f7 56 2a 3c 09 dc 0c be 73 1f e6 3d
       0.2429301 0.010396711 -0.13755812 0.11236467
000370 42 7f 7e bd 0e ca 3a be 09 39 ef 3c d1 1c 19 3e
       -0.06213308 -0.1824114 0.029202001 0.14952399
000380 c9 4f 65 3e 1b 07 14 be 46 c8 9c bc b1 a9 a5 3d
       0.22393717 -0.14455836 -0.019138467 0.08089007
000390 46 55 2f be b8 21 06 be b3 9e 51 bd 57 fd 1e bd
       -0.17122373 -0.130988 -0.051176738 -0.038815822
0003a0 81 8f 23 be 03 6b 36 be 47 a4 13 be bd 0b 42 be
       -0.15972711 -0.17814259 -0.14418136 -0.1894979
0003b0 a8 9c 5e 3e 74 3f 16 3d 13 c8 f3 3c 0c 5c 40 bc
       0.21739447 0.036681607 0.029758489 -0.011740696
0003c0 79 6c 96 bd ca 30 a0 3d 07 61 4b 3c a7 1d 96 3d
       -0.07344908 0.07821806 0.01241327 0.073298745
0003d0 ff be 01 3e 88 fc 37 be 10 33 78 bd be f4 52 be
       0.12670515 -0.17967427 -0.060595572 -0.20601174
0003e0 1e ab 94 bd 92 b3 81 be cc 30 8c bd 8e 27 d5 3c
       -0.072592005 -0.25332314 -0.06845245 0.026019838
0003f0 8f 63 b0 3c 0a 55 86 3d 98 a1 17 3c ac 3e 10 be
       0.021531848 0.06559189 0.009254836 -0.14086407

actor.2.weight f4 [128, 256]
000000 cd e9 7a bd 69 cd ff 3c 22 9e 1a 3c 92 6a 03 be
       -0.061258126 0.031225877 0.009437116 -0.12833622
000010 9e dd 6b bd 59 25 0f bd ac 9b 33 be 98 8e 84 bd
       -0.057584397 -0.034947727 -0.17539853 -0.0647251
000020 f3 48 2f bd a3 f9 cb bc 64 7a 23 3e d6 6a 0b be
       -0.04279418 -0.02489931 0.15964657 -0.13614973
000030 dd ad b5 bd f2 f5 9a bd fc 9e 2d be c2 47 52 bd
       -0.088710524 -0.075664416 -0.16955179 -0.051337965
000040 d3 2c 93 3d 1c e3 16 be d7 fb 5f be 29 19 e7 3d
       0.07186284 -0.14735073 -0.21873413 0.11284096
000050 bb 5e c3 3d 41 0d 26 bc 15 6d 92 3d d3 5d 91 3d
       0.09539553 -0.010134996 0.07149712 0.07097974
000060 89 95 4f 3e 95 7e 57 3b af db 42 3e 23 f6 4d bd
       0.20271887 0.0032881845 0.19029115 -0.050283562
000070 86 de 2e 3d 10 61 04 be fa b9 c3 bd 36 08 b9 bc
       0.042692684 -0.12927651 -0.095569566 -0.022586923
000080 98 a6 c0 3d d0 ea 43 3d a5 eb fc 3c 75 bc ae bd
       0.09406775 0.047831357 0.030874083 -0.08532039
000090 ab bd 11 3e f1 be 61 3e 96 56 4b bd 79 3a 07 3e
       0.14232509 0.22045495 -0.04964312 0.132059
0000a0 5e a3 4a 3e fa 07 96 bd e0 a3 24 be 2c 38 9a 3d
       0.19788882 -0.0732574 -0.16078138 0.07530245
0000b0 f0 24 03 3b 5b 27 45 3d c5 5e 08 be 2d ee 17 bc
       0.002001103 0.048133235 -0.13317402 -0.009273094
0000c0 7d df 6e 3e d1 b4 18 3e f9 8c cf 3d 91 cd 8d bc
       0.23327442 0.14912726 0.1013431 -0.017309936
0000d0 43 61 e9 bc a9 69 88 3d 78 1b 55 bd 1f 17 53 3c
       -0.02848876 0.06660778 -0.05202815 0.0128839305
0000e0 4f ea 83 3d d8 91 8a 3c 81 9f 3c bc 69 c8 63 bd
       0.06441175 0.016915247 -0.011512638 -0.055611048
0000f0 ed a0 5a 3c 90 8e 3f 3d 33 35 1a be 89 ee 10 be
       0.013344032 0.046766818 -0.15059356 -0.14153494
000100 24 94 0d bc b1 c0 e2 bd 3b 35 84 bc eb fb b5 bc
       -0.0086412765 -0.11071909 -0.016138664 -0.02221485
000110 75 6e 13 bd 62 eb e4 3b cd 9a b4 bd b6 cb 6f bc
       -0.035994012 0.0069860676 -0.088185884 -0.014635971
000120 1e 2c 5a bd 57 43 99 3d 53 fe 29 be a1 77 5e 3d
       -0.05326473 0.07483547 -0.16600923 0.054313306
000130 36 7f 4c 3e 73 d2 6b 3d 64 d2 98 3d d4 03 aa bd
       0.19970402 0.057573747 0.07462004 -0.083015114
000140 5a 82 a1 bd 60 20 3a bd c4 6f 78 bc 06 88 7b bd
       -0.07886191 -0.04544103 -0.015163366 -0.06140902
000150 2e 3e 85 3d f9 8d ee 3c 8f 4e 4c 3d 55 79 13 3e
       0.065060005 0.029120432 0.049879607 0.14401753
000160 16 c3 22 3c 94 b2 82 3e fe 00 e4 bc 57 15 0c 3e
       0.009934207 0.2552687 -0.027832504 0.13680016
000170 3a ef a6 3d 7c 1c 41 3d 22 cf 97 bd 62 fd e5 bc
       0.081510976 0.047146305 -0.07412554 -0.028074924
000180 59 14 f1 bc 8d ee 35 be 23 6f 68 bd 83 52 0a be
       -0.029428648 -0.17766781 -0.056746613 -0.13508038
000190 db 3f c6 3d e5 49 05 bd 5e 1c 98 bc 8a f8 88 bc
       0.09680148 -0.032541174 -0.018568214 -0.016720075
0001a0 fb 0c ae bd 46 b9 93 bd 22 a8 8e 3d b9 c7 54 bd
       -0.084985696 -0.072130725 0.069656625 -0.051948283
0001b0 8b 77 34 bd 82 19 cf bd 5d 49 a6 3c e9 50 aa bb
       -0.044059318 -0.10112287 0.020298654 -0.0051976335
0001c0 97 7b 17 bd 90 1f 94 bd 58 dc 14 be 28 9d 93 be
       -0.0369831 -0.072325826 -0.1453718 -0.28830838
0001d0 9d 3c c2 bd e7 ef 13 bd e2 b0 f4 3d c8 d8 2f bd
       -0.09484217 -0.03611746 0.119478 -0.042931348
0001e0 8a a4 83 bc df 13 d6 bc 2b 58 1f be 75 e4 fa bd
       -0.01606967 -0.026132522 -0.15560977 -0.12250606
0001f0 ee 20 f3 bc 23 e0 1c bd e8 87 ad 3d d9 ba 86 3c
       -0.029678788 -0.03829969 0.08473188 0.016446518
000200 fd 19 85 3d 95 e9 e7 bd 74 fd c7 3c 9a a2 f8 bd
       0.064990975 -0.11323849 0.024412848 -0.12140389
000210 6b 8e 85 bc 05 25 c5 bd 9e 35 79 bd 6e 91 06 bd
       -0.016303262 -0.096262015 -0.06084215 -0.032853536
000220 db 55 41 3e c7 c5 c5 bc f6 cc 18 be 6b 14 df bd
       0.18880408 -0.02414216 -0.14921936 -0.10892566
000230 2a fb 27 be 9c 7f 85 3d 31 18 44 3d 28 81 19 3d
       -0.16404405 0.0651848 0.047874633 0.03747669
000240 a0 93 a7 3d 84 4f 2c b8 28 99 c3 bd 78 f2 97 3d
       0.08182454 -4.108205e-05 -0.095506966 0.07419294
000250 87 bb 38 3d 3f b4 dd bd 6b c2 5c be c5 17 3f ba
       0.045100715 -0.10825395 -0.2155854 -0.0007289614
000260 55 72 d1 bd a8 eb f6 bd 46 52 e2 bc a6 8c f3 3d
       -0.10226885 -0.120566666 -0.027627122 0.11892061
000270 99 20 83 bd 5b 7a f3 3c 2e 51 cd 3d 55 d4 03 be
       -0.06402702 0.02972143 0.100252494 -0.12873967
000280 fb d4 11 be dd 32 c0 3a e1 78 00 3d 8c e1 94 3c
       -0.14241402 0.0014663596 0.03136528 0.018173955
000290 67 7e 0c be bb a5 99 bd a0 b6 2b 3e 8f be 14 3e
       -0.13720094 -0.07502314 0.16768885 0.14525817
0002a0 f8 c2 a4 bc 58 8d dc bd 25 37 1d bd 9e 0c 3c 3c
       -0.0201125 -0.10769147 -0.038382668 0.011477618
0002b0 94 bf 5f 3d 85 95 d7 bd 0e 29 de 3d bd a3 7f 3c
       0.054626063 -0.105265655 0.10847674 0.015603003
0002c0 56 20 e6 3d d6 99 c8 3d a6 84 97 bd 0a f2 c2 bc
       0.11236636 0.09794967 -0.073983476 -0.023797054
0002d0 84 1f 30 bc 13 82 59 be 90 f2 13 be fb aa 3e 3d
       -0.010749701 -0.21241026 -0.14447999 0.04654978
0002e0 59 01 3b be 36 b2 fd bc bf 4e 56 bd 36 5e 61 3d
       -0.18262233 -0.030968767 -0.052321192 0.055021487
0002f0 cb d2 99 3d d0 13 f4 3c a7 b0 af 3d 10 46 49 be
       0.07510909 0.029794604 0.08578616 -0.19655633
000300 ac c4 a9 3d 3f 63 1d ba 01 49 80 3e 03 c0 f5 bc
       0.08289465 -0.00060038635 0.25055698 -0.029998785
000310 fb f8 81 3c 2d 86 1a 3e 14 71 0a 3d 74 00 06 be
       0.015865793 0.15090246 0.033799246 -0.1308611
000320 19 9c bc bc b8 ab 7d bd 97 12 32 3d cc 50 63 be
       -0.023023652 -0.061931342 0.04347476 -0.2219879
000330 41 77 54 3d 71 5c ae bd b6 d2 3e 3d 76 0f 13 3e
       0.051871542 -0.085137255 0.04658767 0.14361367
000340 67 93 02 be 5e ca b0 be 47 94 a7 bd 27 43 f1 bd
       -0.12751542 -0.34529394 -0.081825785 -0.117803864
000350 43 4b e2 3d 5e d6 05 be b1 d2 1c 3c 5e ff 95 bc
       0.11049511 -0.13070056 0.009571717 -0.018310245
000360 07 67 0f 3e ba ed b0 bd 67 d9 2f bd 86 f9 82 bd
       0.14004146 -0.08639093 -0.04293194 -0.06395249
000370 90 05 84 bd 47 e9 88 3e 9c df 9f bd 7a ae 47 bc
       -0.064463735 0.26740476 -0.07806322 -0.012187595
000380 89 2d 13 be 90 7d 0b 3d 49 b1 bc 3d 6c 87 61 bd
       -0.14372839 0.034055293 0.09213502 -0.05506079
000390 c0 1b c8 3d 98 b4 0a bd 1b 72 3b 3d a2 e6 90 3d
       0.09770918 -0.033863634 0.045763116 0.0707524
0003a0 0a ca ae 3d df d8 9d 3d 42 7f 99 bd cf 4b 49 bd
       0.0853463 0.077073805 -0.074949756 -0.049144562
0003b0 d0 6e 69 3c 42 97 67 3d 83 f8 99 bc d9 8d d7 3d
       0.014247611 0.056540735 -0.018795257 0.10525102
0003c0 d2 b5 97 bd 31 e9 93 bd 3a 17 3b be 26 f9 13 3b
       -0.07407726 -0.07222212 -0.18270579 0.0022578924
0003d0 fd 07 6f 3d 9c c8 d7 bb 49 1f f7 3d c8 df 12 3e
       0.058357228 -0.006585194 0.12066514 0.14343178
0003e0 60 2c 8d bc 3a 72 86 bd 79 ea bb 3c f4 8d 35 bd
       -0.017233074 -0.06564756 0.022938954 -0.04432483
0003f0 8c 7e a4 3b 14 50 06 be d1 46 54 ba 41 a9 53 be
       0.0050199684 -0.13116485 -0.00080977107 -0.20670034

actor.2.bias f4 [128]
000000 a3 ac cd bd 3a 0b 78 bc 6d 0d 64 bd 62 5f f7 bd
       -0.100426935 -0.015139395 -0.055676866 -0.1207874
000010 df e8 82 bd 36 b0 e8 bd cf f3 27 bd a0 3d be bd
       -0.06392073 -0.113617346 -0.041004 -0.09289098
000020 4a 05 93 3d e4 26 a8 bd 63 c2 f5 3c b6 21 3e 3e
       0.07178743 -0.08210543 0.029999917 0.18567547
000030 f4 b2 a1 3c 55 4d a6 bd f1 58 8f bd 47 cd 3a be
       0.019738652 -0.08120219 -0.06999386 -0.1824237
000040 f2 60 aa 3d 38 47 43 3d bc ca 3d be ce 10 36 be
       0.08319272 0.04767534 -0.18534368 -0.17779848
000050 05 b1 bf 3c 00 d0 f2 3a 56 69 c2 bc 02 ea e5 bd
       0.02339984 0.0018525124 -0.023731869 -0.11226274
000060 42 d0 99 3d bd 7b 44 bd 44 0a fb 3d d7 c9 bb bc
       0.07510425 -0.04796957 0.122578174 -0.022923393
000070 dc c2 28 be 9e 09 22 3d 50 7a 0a 3d 4d 11 87 be
       -0.16480583 0.039559953 0.033808053 -0.26380387
000080 87 f9 be bd 62 3f 2f be 53 59 e0 bc 65 6d 5c 3d
       -0.09324937 -0.17114022 -0.027386343 0.053815264
000090 08 04 9c bd e8 ed d6 bb ec 62 f6 bc 25 32 59 3d
       -0.076179564 -0.0065591224 -0.030076467 0.053026337
0000a0 f2 a5 24 bc 23 51 dc 3d 34 23 eb bd 52 a2 36 3d
       -0.01004933 0.10757663 -0.11481324 0.044588394
0000b0 c1 15 87 bd 7a b6 f4 bd eb 57 e6 bd e6 d4 c1 bd
       -0.06595946 -0.11948867 -0.11247238 -0.09464435
0000c0 81 46 b6 bc 5b bc 38 be 28 77 20 be 55 b9 d2 3c
       -0.022250416 -0.18040602 -0.15670455 0.025723139
0000d0 c1 3d 1e 3d 64 c3 89 be 17 e8 8d bd 98 0f 04 3d
       0.038633112 -0.26906884 -0.06929033 0.032241434
0000e0 08 88 4d be 21 d8 82 3d ef 37 a6 bd 0b 71 fa bd
       -0.20071423 0.063888796 -0.08116137 -0.122285925
0000f0 dc 1d 58 be b1 cc 64 bd bb 12 68 bc 16 f5 9b bc
       -0.2110514 -0.05585927 -0.014164622 -0.019037765
000100 2e 73 55 bd 11 4c 81 be 0e 8f 96 3d 9a 14 44 bd
       -0.052111797 -0.25253347 0.07351504 -0.04787121
000110 85 1d 89 3d c9 ba 30 3c be 51 42 bd 4f 2d 58 bd
       0.066950835 0.010786721 -0.047441237 -0.052777585
000120 3a 9e ee 3c 29 56 73 3c a0 2e 93 bd 6c f8 10 be
       0.029128183 0.014852085 -0.071866274 -0.14157265
000130 5c 67 48 3c cd c6 c4 bc 29 00 65 bd 4b a2 93 bd
       0.012231674 -0.024020577 -0.055908356 -0.07208689
000140 27 5f 0a 3e c0 4c 1e bd a1 f9 0c be 24 5d e1 3c
       0.1351286 -0.038647413 -0.13767101 0.027510233
000150 05 ae 8f bd 45 03 f1 bd 57 95 00 3d c3 87 06 3e
       -0.070156135 -0.11768202 0.03139242 0.13137726
000160 61 87 06 be f9 70 41 be ff 23 5b be 72 bf a1 bd
       -0.1313758 -0.18890752 -0.2140045 -0.078978434
000170 79 04 09 be 1d ee 19 3d 97 bd 23 be 22 34 8e be
       -0.13380612 0.0375806 -0.15990292 -0.2777415
000180 64 7f 26 be 6b a8 8b bb 88 2a 67 be 54 e5 da bd
       -0.16259533 -0.0042620203 -0.22574818 -0.10688272
000190 77 3c 5c bd b3 a0 80 be 06 25 c8 bd af e9 a5 bd
       -0.0537686 -0.25122604 -0.09772687 -0.08101212
0001a0 5e 1d ef be 92 20 24 3d bd b5 e2 bc 36 ef 1b bd
       -0.46702093 0.040070124 -0.02767455 -0.038069926
0001b0 41 d6 34 bd 4a d7 6a 3c 25 1e 34 bc 34 9c 82 bd
       -0.04414964 0.0143335555 -0.010993515 -0.0637745
0001c0 88 92 0b 3e 1a b9 b4 be f1 d9 5e 3c 79 4f 25 be
       0.13630116 -0.3529747 0.013601766 -0.16143598
0001d0 e9 ee b6 3d 73 46 6b 3d 3b e9 71 bd 7e e0 96 be
       0.08932287 0.057440232 -0.059060317 -0.2946815
0001e0 d4 d3 18 bd 93 2f 85 bd 63 57 26 3c 71 14 29 be
       -0.03731139 -0.06503215 0.010152671 -0.16511704
0001f0 36 9d ae 3c b3 b1 27 3d ce 8c c9 bd b5 0b 10 be
       0.021315198 0.04094095 -0.098413095 -0.14066966

actor.4.weight f4 [64, 128]
000000 5b 60 99 bd 93 ef 9f 3d 22 11 97 3b c8 28 9d bc
       -0.074890815 0.07809367 0.0046101967 -0.019184485
000010 49 fd d2 bc 82 01 93 bc 51 7a b6 3d 95 24 20 b6
       -0.025755541 -0.017945055 0.08910049 -2.3863151e-06
000020 70 6a 81 bd 2c fd b5 ba ff 2c 26 3c c3 e4 41 3d
       -0.063191295 -0.0013884655 0.010142564 0.047337305
000030 06 4b a3 bd 1e f2 0d be cd fa 25 bd 48 ee 9b bc
       -0.07973294 -0.13861892 -0.040522385 -0.01903452
000040 c2 8c 86 3d 97 02 7a 3c e5 99 20 be a8 fe 15 3e
       0.06569816 0.0152594065 -0.15683706 0.14647925
000050 03 ee 96 3d 0e 70 cc 3d b8 c2 30 be 39 95 ff bc
       0.07369616 0.0998231 -0.1726178 -0.031199085
000060 3f 30 28 be ac e4 52 be 5c ae e1 3d ce c5 44 be
       -0.16424654 -0.20595044 0.110195845 -0.19216082
000070 29 78 ff 3b bd 3f 9f bb 20 6c 32 3c b3 dd 18 bd
       0.0077963066 -0.004859893 0.010890037 -0.037320804
000080 d9 b9 14 be 36 27 66 3d 1f a8 07 bd da a1 a2 bc
       -0.1452402 0.05618974 -0.033119317 -0.019852567
000090 f8 5a c0 bc 36 1e 9a 3c b7 d9 32 3d b0 e9 ee 3d
       -0.023480877 0.018813234 0.04366466 0.11665666
0000a0 22 dd 49 bd 1f b9 e6 bc 71 2f db 3d d6 00 10 3e
       -0.049283154 -0.028164444 0.10702408 0.14062819
0000b0 06 ce 4b 3d b4 72 ac 3d 69 9e 54 be d4 b7 31 be
       0.049757026 0.084203154 -0.20763554 -0.17355281
0000c0 f8 63 00 be c3 fa 9a 3d 00 24 0e be fc 7c 2f 3d
       -0.12538135 0.0756736 -0.1388092 0.042843804
0000d0 df 56 93 bd 4c e6 3d bd a4 b8 19 be 27 4d 85 bd
       -0.07194304 -0.046362206 -0.15011841 -0.06508856
0000e0 68 e1 15 be 7a 20 52 3d f1 ad cc bd 71 68 ad bc
       -0.14636767 0.051300503 -0.09994114 -0.021167966
0000f0 6b 5c 80 bd 67 b9 df bd 6b ac 13 be 6d f8 e1 3c
       -0.06267627 -0.109240346 -0.14421241 0.027584279
000100 e5 b7 2d be 22 6f a4 bd e2 d9 bc bd 38 ae 2f 3d
       -0.16964681 -0.080290094 -0.09221245 0.042890757
000110 3e f5 95 3d 10 54 7f bd 49 3c 88 be ea d8 84 be
       0.07322167 -0.062336028 -0.26608494 -0.25946742
000120 bc b5 0d 3d 44 88 bb bd d4 36 e6 3d b5 dd 2c 3c
       0.034597144 -0.0915685 0.112409264 0.010550906
000130 75 21 2a bc 30 62 4b bd d6 9c 84 bd 29 7f 22 be
       -0.010383953 -0.049654186 -0.064752266 -0.1586882
000140 02 3a cc 3d 4d da cb bb d1 37 a7 3d db f7 15 3d
       0.099720016 -0.006221092 0.08164943 0.036613327
000150 a0 94 17 bb ef be 08 bb 0e cd bb 3d 78 40 e3 3c
       -0.002312936 -0.0020865758 0.091699705 0.027740702
000160 92 67 c3 3d 7a 6e c6 3d e6 5f 2d be 7a e7 26 3e
       0.09541239 0.096890405 -0.16931114 0.16299239
000170 b9 20 28 3d 47 3c 74 bd c9 82 fb 3d 1e 5c 6b bd
       0.04104683 -0.059627797 0.12280805 -0.057460897
000180 71 2d 71 be 22 97 7e bd 4a fa b3 bd af 70 71 3d
       -0.23552491 -0.06215585 -0.08787973 0.058945354
000190 91 36 06 3e e8 81 4f bc 6d 68 2b bd 95 c4 3a 3c
       0.13106753 -0.012665249 -0.041847635 0.011399408
0001a0 a5 b1 89 bd 42 fd 01 bf 13 75 6a 3d 6c ae d8 3d
       -0.06723336 -0.50777066 0.057240557 0.10580143
0001b0 c0 c2 ee 3d b3 36 38 3e 12 b6 84 3c aa b8 ba bb
       0.11658239 0.17989616 0.0162001 -0.005698283
0001c0 7b 0a a5 bc 54 0f d0 3c 26 2d 03 3e 6b 34 97 3d
       -0.020146599 0.025397934 0.12810192 0.07383045
0001d0 fe 70 ba 3c 6b 11 a5 3d 6d 9a 28 3d 06 24 45 3d
       0.022758957 0.08059963 0.041162897 0.048130058
0001e0 c9 b7 96 bd b8 fe 91 3d 8c 24 26 be e3 df 1b 3d
       -0.07359273 0.07128662 -0.16224879 0.038055312
0001f0 84 0c a5 3c bf cb 84 bd 30 a4 13 be d8 b8 09 3d
       0.02014757 -0.06484174 -0.14418101 0.033623546
000200 4b 67 b7 3c b6 bd 93 bc 14 e9 a6 bd a5 97 59 bd
       0.022388121 -0.018034797 -0.08149925 -0.053123135
000210 48 4d ec 3d 60 4e f5 bb 52 11 bc bd de ef f8 3b
       0.11538178 -0.0074861497 -0.09182991 0.007596954
000220 0f c6 4d bd 12 74 2f bd 8e eb 7e bc ff 48 e8 3d
       -0.05023771 -0.042835303 -0.01555909 0.11342048
000230 50 e0 25 3e a3 c2 a3 bd 74 f1 8f 3c 3f 14 87 bd
       0.1619885 -0.079961084 0.017571189 -0.065956585
000240 39 f3 27 bd a9 e7 a0 3d 68 9c 33 bd cd 9d 0a 3e
       -0.04100344 0.07856686 -0.043850332 0.13536759
000250 6c 9b 88 3d af 40 ea bc 35 84 44 be 3f ce 4d be
       0.06670269 -0.028595297 -0.19191058 -0.20098208
000260 37 5a 14 be 03 e9 0c be c2 ed 14 bd 8a 0c 2b 3e
       -0.14487539 -0.13760762 -0.036359556 0.16704002
000270 eb cf d1 bb b3 ae d5 bd 68 e7 c5 3c 9f 3c 44 3e
       -0.0064029596 -0.10433712 0.024158195 0.1916375
000280 04 11 08 be 62 7b 1e bd f4 97 1f be 60 a2 d1 3d
       -0.13287741 -0.038691886 -0.1558531 0.10236049
000290 4a b6 01 bd 94 b3 0b 3e bf b9 43 bd fd a9 db bc
       -0.031667985 0.13642722 -0.047784563 -0.026814455
0002a0 8b 54 29 3e aa 0e 0b be 78 be 94 bd 8b bd 9d bd
       0.16536157 -0.13579813 -0.072628915 -0.07702168
0002b0 a2 52 f5 bc 92 40 8f bd 52 3b aa 3b 68 b6 7c bd
       -0.029946629 -0.06994738 0.00519506 -0.061697394
0002c0 74 1c 8e bd ed ac 6b ba 5b 27 09 3d a5 a1 20 3d
       -0.06939021 -0.00089903065 0.033484798 0.039216656
0002d0 83 03 2f bd 7b ef ba 3d cb c4 f6 3d cf ec cd bd
       -0.04272796 0.091277085 0.12049254 -0.10054933
0002e0 5c 85 44 bd 56 b0 fd bd 60 f9 20 3d 96 49 99 b8
       -0.047978744 -0.12387149 0.039300323 -7.309315e-05
0002f0 ed 1c 69 3d 08 c1 64 bd b1 1a 1a 3d 2c 24 02 3c
       0.05691235 -0.05584815 0.03762311 0.007943194
000300 e0 ca d6 3c 8a 16 5e 3d 82 73 17 bc c1 1c 43 bd
       0.026219785 0.054220714 -0.009243848 -0.047634844
000310 b9 e5 f8 bb 8a de cc bc cf 5b a7 3d f1 f8 86 bd
       -0.0075957444 -0.025008459 0.08171808 -0.065904506
000320 3e 62 bf 3c 2f 1f b8 bd 6e de 56 bd 30 90 2d 3e
       0.023362275 -0.08990323 -0.05245822 0.16949534
000330 f5 9e bc 3d 5f de 1c 3d 8f da 4e bd 63 df b1 3d
       0.09210006 0.038298007 -0.050501402 0.08685186
000340 4c c2 bc 3b ff ce 3e bd ea 40 02 bd f5 1a 97 bc
       0.0057604667 -0.046584126 -0.031800188 -0.018445471
000350 e7 3f b2 3d 38 52 0b 3d 08 42 1c be 21 0c c5 3d
       0.08703595 0.034013957 -0.15259564 0.09621454
000360 79 fa 85 3d a5 f3 b8 bd 7d 4a d9 3c 56 5c 23 be
       0.065419145 -0.090308465 0.026524777 -0.15953192
000370 81 0c 21 be 2e 2f 3f bc 22 e0 e5 bc fa 14 1d 3b
       -0.15727426 -0.011668963 -0.028060976 0.0023968802
000380 f8 47 53 bd 29 76 68 3d e8 7a 91 3d dd fd 85 bd
       -0.051582307 0.05675331 0.07103521 -0.06542561
000390 5f fe 90 bc 90 aa 3b 3e 70 4b 0f 3e 27 94 3a 3d
       -0.017699419 0.18326783 0.13993621 0.045551445
0003a0 bb d7 a7 3d f8 9e 49 bd bf 43 e7 3d 71 80 ee 3c
       0.08195444 -0.04922387 0.112922184 0.02911398
0003b0 80 51 00 3c b3 1d ee bd 3f 49 87 3d fe 7f b9 bd
       0.007831931 -0.116267584 0.066057675 -0.09057616
0003c0 a8 2b c5 3b e6 0a ea bc 68 fc df bb e2 79 8f bd
       0.006017167 -0.02856965 -0.006835509 -0.07005669
0003d0 7d b5 a8 3d 9b ed 32 3c 76 2d ab bd 60 22 b2 3c
       0.08237741 0.010920907 -0.0835828 0.021744907
0003e0 25 50 c5 3c a6 33 e1 3b 55 8d e2 bd 4e aa 71 bd
       0.024086067 0.006872612 -0.11062113 -0.059000306
0003f0 4c ff 39 3e f7 c1 1d 3d 4e 84 22 3d b9 a5 db bd
       0.18163794 0.038515057 0.039676957 -0.107249685

actor.4.bias f4 [64]
000000 c2 9f 05 3e 07 f6 2e be 52 cf 83 bd 54 76 97 be
       0.13049224 -0.1708604 -0.064360276 -0.29582465
000010 11 19 59 be 22 ae ef bd 35 a1 33 bd b5 71 0f be
       -0.21200968 -0.11703135 -0.04385491 -0.1400822
000020 32 f2 3d 3d a4 aa b1 bd 57 23 a4 3b e6 77 5e bd
       0.046373554 -0.08675125 0.0050090957 -0.054313563
000030 1b 5f 36 be 54 4f 3f 3d 81 5c 88 be cc e6 ee 3c
       -0.17809717 0.046706513 -0.26633075 0.029162787
000040 4e c3 e6 3d b8 1a 83 bd f0 d5 06 3d 77 15 2e 3d
       0.1126772 -0.064015806 0.03291887 0.04250094
000050 d1 99 63 be b2 27 c8 bc 70 c9 a2 bd cd 24 3c be
       -0.22226645 -0.02443299 -0.079485774 -0.18373413
000060 bc e8 57 be 68 42 0a bc 57 42 c5 bd 44 ad e0 bc
       -0.21084875 -0.008438684 -0.09631794 -0.02742637
000070 c7 2b 95 bd 48 8d a1 bd 26 0f 43 be 0d 0c 77 3c
       -0.072837405 -0.078882754 -0.19048747 0.015078557
000080 c0 29 7d 3d a6 e6 ce bc 66 d0 e2 bd 40 aa 92 bc
       0.061807394 -0.025256466 -0.11074905 -0.017903447
000090 59 df 3b bd b1 4a 5d 3e 93 95 2f bd fd 55 ff bd
       -0.045867298 0.21610524 -0.042867254 -0.12467573
0000a0 c7 53 8e bd 3a 0a 09 bd 15 7b 52 3c f7 9a 26 be
       -0.06949573 -0.03345702 0.012846728 -0.16270052
0000b0 e8 ff e1 be 0b b8 c7 be cf 8c 1e be ca ee 85 bd
       -0.44140553 -0.390076 -0.15483402 -0.06539686
0000c0 b6 d2 a1 bd 53 46 0d 3d c3 6e 85 be a2 0d e5 be
       -0.07901518 0.034490895 -0.26061067 -0.44736964
0000d0 79 c8 a0 3b 24 2e be 3d d9 c0 02 bd c5 7c 14 3c
       0.0049067107 0.092861444 -0.031922195 0.0090629505
0000e0 e5 97 37 3d a4 01 d9 3d f2 12 0a 38 72 28 8f bd
       0.044822592 0.10596016 3.2919408e-05 -0.06990136
0000f0 51 0a 0c bd 5e 5c 84 be 99 b6 b9 3c f5 8a bc be
       -0.034189526 -0.2585172 0.022670077 -0.36824766

actor.6.weight f4 [7, 64]
000000 17 4a fa bd e5 7b 31 3c 11 7c 5a be 7b 02 38 bd
       -0.12221163 0.010832761 -0.2133639 -0.04492424
000010 bc 68 0e 3e e9 44 40 bb d2 3e 70 bc 34 0a b7 3d
       0.1390714 -0.0029337949 -0.014663415 0.08937493
000020 3b 01 29 bc 53 8c aa bc c1 11 40 bb cf 9a bb bc
       -0.010315235 -0.020818865 -0.0029307457 -0.022900967
000030 14 74 78 bd 04 75 05 bb 3e 77 83 bd 93 70 15 3d
       -0.060657576 -0.0020363936 -0.06419228 0.036484312
000040 5d 57 b2 bc 43 9f 6b 3c 5d f9 bb 3d 1f cf 01 bd
       -0.021770174 0.014381233 0.09178422 -0.031691667
000050 b9 45 cd bd 58 3e 9d bc f1 66 9f bb fe 90 d0 3c
       -0.10023064 -0.019194767 -0.0048645665 0.025459763
000060 34 83 1c 3d 9e 09 58 3d 55 88 08 bc 74 0e 90 bd
       0.038211063 0.052743547 -0.008333285 -0.07034007
000070 b5 e0 31 3a f3 e1 26 bc 1b bc 43 3c 98 85 96 3b
       0.0006785498 -0.010185706 0.011946703 0.0045935623
000080 dc 29 13 3c f0 2e 28 bd 27 13 bb 3c 26 21 33 3d
       0.008982148 -0.041060388 0.022836281 0.043732785
000090 b6 e1 da 3c 8a 5c 02 3e 12 6d f5 3c f3 09 07 3d
       0.026718955 0.12730613 0.029959235 0.032968473
0000a0 e8 3e 91 bb ee 7a 12 3c bd 2d 27 3c db 0e 60 3b
       -0.004432548 0.0089404415 0.010203776 0.0034188542
0000b0 0a 3f e2 3c 15 8b 61 3c 12 3b a8 bb ef dd 61 be
       0.02761795 0.01376607 -0.005133995 -0.22057317
0000c0 a5 0d 54 bd 68 5a 56 3a 9e 3f 7c b8 10 54 76 bd
       -0.051770825 0.0008176924 -6.014073e-05 -0.060138762
0000d0 9b 95 86 bd d2 75 ad 3c dc 1e 8d bd 1a c9 c7 3c
       -0.06571504 0.021174345 -0.068906516 0.024387885
0000e0 b8 01 92 bd 3f 22 2e bd 26 fe b1 3c 39 3e a3 3b
       -0.07129234 -0.04251313 0.021727633 0.0049817828
0000f0 c3 ae d2 ba 4f 74 87 bd 38 62 ea 3b 37 bc 74 3c
       -0.0016073812 -0.06613981 0.007152822 0.014937452
000100 88 45 14 bd 07 aa 4b 3d 1e 9a 5f 3d 65 94 a3 bd
       -0.036199123 0.049722698 0.054590337 -0.079872884
000110 b3 3a af bd 40 16 81 3c d7 5b e6 bc b7 d2 a2 bd
       -0.08556118 0.01575768 -0.028119965 -0.07950347
000120 73 73 c5 bc 2c 58 b4 3c 74 54 db 3c 85 cf aa 3d
       -0.024102902 0.0220147 0.026773669 0.083403625
000130 c7 c7 83 bd 07 c5 1b 3d d9 cd ed bc 6f dc 83 ba
       -0.06434589 0.038029697 -0.02902882 -0.0010060201
000140 09 26 da bc 53 f8 a7 3d 2b 04 49 bd a3 27 1a bd
       -0.026629465 0.08201661 -0.04907624 -0.037635457
000150 d1 47 bc 3c 1b 45 d3 3b c4 d0 83 3d 65 d7 46 3d
       0.022983463 0.006447447 0.06436303 0.04854526
000160 80 7f fa bc 99 f8 b9 3c c4 27 50 3c fd 06 8b 3d
       -0.030578375 0.022701548 0.012704793 0.06788442
000170 a5 c7 d7 bd 41 34 ad 3c e7 95 10 bd 37 ac 7e 3d
       -0.10536126 0.02114308 -0.035299208 0.062175956
000180 3f 1e ce 3c 4e 95 c5 ba 9f 9b 81 bd 53 2d 56 be
       0.025160907 -0.0015074403 -0.063285105 -0.20915727
000190 75 4d 61 bd e9 a4 1e bd b4 17 26 3d 79 35 f2 bc
       -0.05500551 -0.03873149 0.04054995 -0.029566513
0001a0 0f 54 a4 3c 82 ec c4 3b 64 59 4d bd be 41 64 3d
       0.020059614 0.0060096392 -0.050134078 0.05572676
0001b0 f7 46 96 3d 36 f6 ff 3c 51 ae 26 bd 2b d2 65 3e
       0.07337754 0.031245332 -0.040693585 0.22443454
0001c0 b0 0e e3 3c 0d 3a 61 3c d9 08 1c bb 4a 87 2e 3d
       0.027716964 0.013746751 -0.0023808985 0.04260949
0001d0 9a 41 90 bc f2 12 85 bc d0 1a 84 bd 2d 00 26 3e
       -0.017609406 -0.016244385 -0.064504266 0.16211005
0001e0 0c e8 30 3d 9e e0 34 3d 47 3b 1c 3d 0d 2c 4b 3e
       0.043190047 0.044159524 0.03814247 0.19841023
0001f0 6d b2 40 3a 1b cf 34 3d 3b 95 5f bd 63 f6 4d 3b
       0.0007350806 0.044142824 -0.054585677 0.0031427376
000200 f2 1a 58 bc e5 44 11 ba 72 d3 f9 bd 80 a2 62 bb
       -0.013190018 -0.0005541577 -0.12198533 -0.003458172
000210 3e 42 79 bd 1d 37 a0 bc 40 b4 09 bc a7 c2 c0 be
       -0.06085419 -0.01955753 -0.008404791 -0.37648508
000220 63 3d 30 bc db d2 41 be df d7 27 bd dd fc f1 bd
       -0.010756823 -0.18928091 -0.040977355 -0.11815808
000230 98 43 02 3d 79 92 3b bc 10 29 2f 3c 82 c7 d9 3d
       0.031802744 -0.011448496 0.010690942 0.10633756
000240 09 b2 8b 3c 75 55 91 3d b6 b6 2c bd e0 0d b6 bd
       0.017052667 0.07096378 -0.042166434 -0.08889365
000250 03 72 8e bd d6 6f 5b bd 7d 45 c1 bc b1 ff 15 be
       -0.0695534 -0.053573452 -0.023592705 -0.1464832
000260 9b ae 21 bd 5c 80 4c bd 40 4c 03 bd e9 e8 41 3c
       -0.039473157 -0.0499271 -0.03205514 0.011835315
000270 4e a3 0f 3d 1f 5e 83 3c 1b 1e 77 bc 03 fe 82 bc
       0.03506785 0.016036091 -0.015082861 -0.015990263
000280 fc 50 21 3d 2c 3e f5 3c 15 f6 2e bd f2 21 a7 bd
       0.039383873 0.029936872 -0.04271515 -0.081607714
000290 4b ac 48 bd 48 53 88 3c 29 ce 04 3d fb c5 1a bc
       -0.048992436 0.016641274 0.032423172 -0.009446616
0002a0 76 b4 7e bc 73 1a e5 bd 60 12 4c 3d 5e 36 c5 bb
       -0.015545955 -0.111866854 0.04982221 -0.006018444
0002b0 33 33 3a 3d 94 ee 1e bd 3e 22 a6 bc b8 35 11 be
       0.045458984 -0.038801745 -0.02028 -0.14180648
0002c0 81 71 3e 3d 0a d7 7d bc 3b d3 a6 bb 5e f9 16 bb
       0.046494965 -0.015493164 -0.0050910986 -0.0023036818
0002d0 32 23 19 be f4 21 d8 3a f1 21 07 3d 8f 9a 72 bd
       -0.14954832 0.0016489611 0.032991353 -0.05922943
0002e0 08 2a a4 bc 7b 1f 8e 3d c9 51 80 3d 28 a3 c7 bc
       -0.020039573 0.06939598 0.06265599 -0.024369791
0002f0 06 b5 92 b9 36 8c 92 bd 93 00 0f bc 04 11 ed 3a
       -0.00027982163 -0.07155649 -0.008728164 0.0018086736
000300 4a 83 c8 3c 2d 87 82 3d 4c e1 da bb cc 1a 4e 3c
       0.024476666 0.06373439 -0.0066796895 0.012579631
000310 5b ae 3a bd 9c 2b d8 3d 3a 70 2e bb bd 0b ff 3d
       -0.045576435 0.10555193 -0.0026617185 0.12453411
000320 f1 d6 86 be 61 b7 86 bd e1 62 fb 3d 09 01 f4 3c
       -0.26335862 -0.065779455 0.12274719 0.02978565
000330 92 63 00 3e b8 bc 06 be 05 81 31 bd a8 ef 34 3c
       0.12537983 -0.13157928 -0.043335933 0.011043467
000340 f2 e3 8a bd a3 30 c9 bd 63 b5 6d 3d 5f f6 ad 3d
       -0.06781758 -0.0982373 0.058034312 0.08494257
000350 44 95 6f 3d e9 e2 ef 3b 1f d1 a3 3d 83 b3 2f 3d
       0.05849196 0.007320751 0.07998871 0.042895805
000360 16 8d 61 bd b6 07 b1 bc 7e a2 4c bc db d6 66 3c
       -0.05506619 -0.021610122 -0.012489913 0.0140893115
000370 f3 24 04 be f2 91 e1 3d 66 2d 88 bd d7 61 eb 3c
       -0.1290472 0.11014165 -0.06649284 0.028733177
000380 7c 89 da bb ac b9 32 bc 7b f9 b6 3c 24 2b f5 3d
       -0.0066692214 -0.010908525 0.022335758 0.11971119
000390 53 bd 1d 3e 09 5e f0 bd 06 44 05 be fd 63 d4 3d
       0.15404253 -0.11736686 -0.1301423 0.10370634
0003a0 d2 6e 71 3d 64 0b bc 3d 13 3a d2 3d 70 39 ce 3d
       0.058943577 0.0918186 0.10264983 0.10069549
0003b0 65 16 ca 3c 0f 54 f5 3d b4 54 f6 3c 7c 26 96 3d
       0.024668882 0.119789235 0.030069686 0.07331559
0003c0 a2 2b 11 bc 2c 0b 56 be 04 bc 9c ba 46 e0 e0 bc
       -0.0088605005 -0.20902699 -0.0011957888 -0.027450692
0003d0 0e 9d cb 3d 72 fe 84 be e5 d2 11 3e 66 ca ae 3d
       0.09942065 -0.25975376 0.14240606 0.08534698
0003e0 04 fa 4c be 61 9b 95 bc 16 9a e4 3d e2 48 af 3b
       -0.20017248 -0.018262567 0.11162202 0.0053492645
0003f0 fb ca 9a 3c 5d 32 c6 3c 2c 54 37 3d 56 89 6d 3c
       0.018895617 0.024193937 0.044758007 0.0144980755

actor.6.bias f4 [7]
000000 1b df 52 bd 7d 02 2d 3d c2 f4 1a be 99 4d 20 ba
       -0.0514823 0.0422387 -0.1513243 -0.00061150786
000010 1a 2d bc 3c 85 25 2b 3c 62 ab 19 bf
       0.022970725 0.010445957 -0.60027134
